<?xml version="1.0" ?>
<net name="model" version="10">
	<layers>
		<layer id="0" name="image_input" type="Parameter" version="opset1">
			<data element_type="f32" shape="1, 3, 384, 384"/>
			<output>
				<port id="0" names="image_input:0" precision="FP32">
					<dim>1</dim>
					<dim>3</dim>
					<dim>384</dim>
					<dim>384</dim>
				</port>
			</output>
		</layer>
		<layer id="1" name="1485223014" type="Const" version="opset1">
			<data element_type="i64" offset="0" shape="4" size="32"/>
			<output>
				<port id="0" precision="I64">
					<dim>4</dim>
				</port>
			</output>
		</layer>
		<layer id="2" name="1485822513" type="Const" version="opset1">
			<data element_type="i64" offset="32" shape="4" size="32"/>
			<output>
				<port id="0" precision="I64">
					<dim>4</dim>
				</port>
			</output>
		</layer>
		<layer id="3" name="Conv_pad/Pad/pad_value_convert_input_port_0/value" type="Const" version="opset1">
			<data element_type="f32" offset="64" shape="" size="4"/>
			<output>
				<port id="0" precision="FP32"/>
			</output>
		</layer>
		<layer id="4" name="Conv_pad/Pad/pad_value_convert" type="ConvertLike" version="opset1">
			<input>
				<port id="0" precision="FP32"/>
				<port id="1" precision="FP32">
					<dim>1</dim>
					<dim>3</dim>
					<dim>384</dim>
					<dim>384</dim>
				</port>
			</input>
			<output>
				<port id="2" precision="FP32"/>
			</output>
		</layer>
		<layer id="5" name="Conv_pad/Pad" type="Pad" version="opset1">
			<data pad_mode="constant"/>
			<input>
				<port id="0" precision="FP32">
					<dim>1</dim>
					<dim>3</dim>
					<dim>384</dim>
					<dim>384</dim>
				</port>
				<port id="1" precision="I64">
					<dim>4</dim>
				</port>
				<port id="2" precision="I64">
					<dim>4</dim>
				</port>
				<port id="3" precision="FP32"/>
			</input>
			<output>
				<port id="4" names="Conv_pad/Pad:0" precision="FP32">
					<dim>1</dim>
					<dim>3</dim>
					<dim>385</dim>
					<dim>385</dim>
				</port>
			</output>
		</layer>
		<layer id="6" name="Conv/BatchNorm/batchnorm/mul_1_copy" type="Const" version="opset1">
			<data element_type="f32" offset="68" shape="16, 3, 3, 3" size="1728"/>
			<output>
				<port id="0" names="Conv/Conv2D/ReadVariableOp:0" precision="FP32">
					<dim>16</dim>
					<dim>3</dim>
					<dim>3</dim>
					<dim>3</dim>
				</port>
			</output>
		</layer>
		<layer id="7" name="Conv/Conv2D" type="Convolution" version="opset1">
			<data auto_pad="valid" dilations="1, 1" pads_begin="0, 0" pads_end="0, 0" strides="2, 2"/>
			<input>
				<port id="0" precision="FP32">
					<dim>1</dim>
					<dim>3</dim>
					<dim>385</dim>
					<dim>385</dim>
				</port>
				<port id="1" precision="FP32">
					<dim>16</dim>
					<dim>3</dim>
					<dim>3</dim>
					<dim>3</dim>
				</port>
			</input>
			<output>
				<port id="2" names="Conv/BatchNorm/batchnorm/mul_1:0" precision="FP32">
					<dim>1</dim>
					<dim>16</dim>
					<dim>192</dim>
					<dim>192</dim>
				</port>
			</output>
		</layer>
		<layer id="8" name="Conv/BatchNorm/batchnorm/sub" type="Const" version="opset1">
			<data element_type="f32" offset="1796" shape="1, 16, 1, 1" size="64"/>
			<output>
				<port id="0" names="Conv/BatchNorm/batchnorm/sub:0" precision="FP32">
					<dim>1</dim>
					<dim>16</dim>
					<dim>1</dim>
					<dim>1</dim>
				</port>
			</output>
		</layer>
		<layer id="9" name="Conv/BatchNorm/batchnorm/add_1" type="Add" version="opset1">
			<data auto_broadcast="numpy"/>
			<input>
				<port id="0" precision="FP32">
					<dim>1</dim>
					<dim>16</dim>
					<dim>192</dim>
					<dim>192</dim>
				</port>
				<port id="1" precision="FP32">
					<dim>1</dim>
					<dim>16</dim>
					<dim>1</dim>
					<dim>1</dim>
				</port>
			</input>
			<output>
				<port id="2" names="Conv/BatchNorm/batchnorm/add_1:0" precision="FP32">
					<dim>1</dim>
					<dim>16</dim>
					<dim>192</dim>
					<dim>192</dim>
				</port>
			</output>
		</layer>
		<layer id="10" name="activation/activation/mul" type="HSigmoid" version="opset5">
			<input>
				<port id="0" precision="FP32">
					<dim>1</dim>
					<dim>16</dim>
					<dim>192</dim>
					<dim>192</dim>
				</port>
			</input>
			<output>
				<port id="1" names="activation/activation/mul:0" precision="FP32">
					<dim>1</dim>
					<dim>16</dim>
					<dim>192</dim>
					<dim>192</dim>
				</port>
			</output>
		</layer>
		<layer id="11" name="activation/multiply/mul" type="Multiply" version="opset1">
			<data auto_broadcast="numpy"/>
			<input>
				<port id="0" precision="FP32">
					<dim>1</dim>
					<dim>16</dim>
					<dim>192</dim>
					<dim>192</dim>
				</port>
				<port id="1" precision="FP32">
					<dim>1</dim>
					<dim>16</dim>
					<dim>192</dim>
					<dim>192</dim>
				</port>
			</input>
			<output>
				<port id="2" names="activation/multiply/mul:0" precision="FP32">
					<dim>1</dim>
					<dim>16</dim>
					<dim>192</dim>
					<dim>192</dim>
				</port>
			</output>
		</layer>
		<layer id="12" name="1486422957" type="Const" version="opset1">
			<data element_type="i64" offset="0" shape="4" size="32"/>
			<output>
				<port id="0" precision="I64">
					<dim>4</dim>
				</port>
			</output>
		</layer>
		<layer id="13" name="1487022570" type="Const" version="opset1">
			<data element_type="i64" offset="32" shape="4" size="32"/>
			<output>
				<port id="0" precision="I64">
					<dim>4</dim>
				</port>
			</output>
		</layer>
		<layer id="14" name="expanded_conv/depthwise/pad/Pad/pad_value_convert_input_port_0/value" type="Const" version="opset1">
			<data element_type="f32" offset="64" shape="" size="4"/>
			<output>
				<port id="0" precision="FP32"/>
			</output>
		</layer>
		<layer id="15" name="expanded_conv/depthwise/pad/Pad/pad_value_convert" type="ConvertLike" version="opset1">
			<input>
				<port id="0" precision="FP32"/>
				<port id="1" precision="FP32">
					<dim>1</dim>
					<dim>16</dim>
					<dim>192</dim>
					<dim>192</dim>
				</port>
			</input>
			<output>
				<port id="2" precision="FP32"/>
			</output>
		</layer>
		<layer id="16" name="expanded_conv/depthwise/pad/Pad" type="Pad" version="opset1">
			<data pad_mode="constant"/>
			<input>
				<port id="0" precision="FP32">
					<dim>1</dim>
					<dim>16</dim>
					<dim>192</dim>
					<dim>192</dim>
				</port>
				<port id="1" precision="I64">
					<dim>4</dim>
				</port>
				<port id="2" precision="I64">
					<dim>4</dim>
				</port>
				<port id="3" precision="FP32"/>
			</input>
			<output>
				<port id="4" names="expanded_conv/depthwise/pad/Pad:0" precision="FP32">
					<dim>1</dim>
					<dim>16</dim>
					<dim>193</dim>
					<dim>193</dim>
				</port>
			</output>
		</layer>
		<layer id="17" name="expanded_conv/depthwise/BatchNorm/batchnorm/mul_1_copy" type="Const" version="opset1">
			<data element_type="f32" offset="1860" shape="16, 1, 1, 3, 3" size="576"/>
			<output>
				<port id="0" names="expanded_conv/depthwise/Conv/depthwise/ReadVariableOp:0" precision="FP32">
					<dim>16</dim>
					<dim>1</dim>
					<dim>1</dim>
					<dim>3</dim>
					<dim>3</dim>
				</port>
			</output>
		</layer>
		<layer id="18" name="expanded_conv/depthwise/Conv/depthwise" type="GroupConvolution" version="opset1">
			<data auto_pad="valid" dilations="1, 1" pads_begin="0, 0" pads_end="0, 0" strides="2, 2"/>
			<input>
				<port id="0" precision="FP32">
					<dim>1</dim>
					<dim>16</dim>
					<dim>193</dim>
					<dim>193</dim>
				</port>
				<port id="1" precision="FP32">
					<dim>16</dim>
					<dim>1</dim>
					<dim>1</dim>
					<dim>3</dim>
					<dim>3</dim>
				</port>
			</input>
			<output>
				<port id="2" names="expanded_conv/depthwise/BatchNorm/batchnorm/mul_1:0" precision="FP32">
					<dim>1</dim>
					<dim>16</dim>
					<dim>96</dim>
					<dim>96</dim>
				</port>
			</output>
		</layer>
		<layer id="19" name="expanded_conv/depthwise/BatchNorm/batchnorm/sub" type="Const" version="opset1">
			<data element_type="f32" offset="2436" shape="1, 16, 1, 1" size="64"/>
			<output>
				<port id="0" names="expanded_conv/depthwise/BatchNorm/batchnorm/sub:0" precision="FP32">
					<dim>1</dim>
					<dim>16</dim>
					<dim>1</dim>
					<dim>1</dim>
				</port>
			</output>
		</layer>
		<layer id="20" name="expanded_conv/depthwise/BatchNorm/batchnorm/add_1" type="Add" version="opset1">
			<data auto_broadcast="numpy"/>
			<input>
				<port id="0" precision="FP32">
					<dim>1</dim>
					<dim>16</dim>
					<dim>96</dim>
					<dim>96</dim>
				</port>
				<port id="1" precision="FP32">
					<dim>1</dim>
					<dim>16</dim>
					<dim>1</dim>
					<dim>1</dim>
				</port>
			</input>
			<output>
				<port id="2" names="expanded_conv/depthwise/BatchNorm/batchnorm/add_1:0" precision="FP32">
					<dim>1</dim>
					<dim>16</dim>
					<dim>96</dim>
					<dim>96</dim>
				</port>
			</output>
		</layer>
		<layer id="21" name="activation_1/Relu" type="ReLU" version="opset1">
			<input>
				<port id="0" precision="FP32">
					<dim>1</dim>
					<dim>16</dim>
					<dim>96</dim>
					<dim>96</dim>
				</port>
			</input>
			<output>
				<port id="1" precision="FP32">
					<dim>1</dim>
					<dim>16</dim>
					<dim>96</dim>
					<dim>96</dim>
				</port>
			</output>
		</layer>
		<layer id="22" name="expanded_conv/squeeze_excite/AvgPool/MeanGather1695622921" type="Const" version="opset1">
			<data element_type="i64" offset="2500" shape="2" size="16"/>
			<output>
				<port id="0" precision="I64">
					<dim>2</dim>
				</port>
			</output>
		</layer>
		<layer id="23" name="expanded_conv/squeeze_excite/AvgPool/Mean" type="ReduceMean" version="opset1">
			<data keep_dims="false"/>
			<input>
				<port id="0" precision="FP32">
					<dim>1</dim>
					<dim>16</dim>
					<dim>96</dim>
					<dim>96</dim>
				</port>
				<port id="1" precision="I64">
					<dim>2</dim>
				</port>
			</input>
			<output>
				<port id="2" names="expanded_conv/squeeze_excite/AvgPool/Mean:0" precision="FP32">
					<dim>1</dim>
					<dim>16</dim>
				</port>
			</output>
		</layer>
		<layer id="24" name="reshape/Shape" type="ShapeOf" version="opset3">
			<data output_type="i32"/>
			<input>
				<port id="0" precision="FP32">
					<dim>1</dim>
					<dim>16</dim>
				</port>
			</input>
			<output>
				<port id="1" names="reshape/Shape:0" precision="I32">
					<dim>2</dim>
				</port>
			</output>
		</layer>
		<layer id="25" name="reshape/strided_slice/stack" type="Const" version="opset1">
			<data element_type="i64" offset="2516" shape="1" size="8"/>
			<output>
				<port id="0" names="reshape/strided_slice/stack:0" precision="I64">
					<dim>1</dim>
				</port>
			</output>
		</layer>
		<layer id="26" name="reshape/strided_slice/stack_1" type="Const" version="opset1">
			<data element_type="i64" offset="2524" shape="1" size="8"/>
			<output>
				<port id="0" names="reshape/strided_slice/stack_1:0" precision="I64">
					<dim>1</dim>
				</port>
			</output>
		</layer>
		<layer id="27" name="reshape/strided_slice/stack_2" type="Const" version="opset1">
			<data element_type="i64" offset="2524" shape="1" size="8"/>
			<output>
				<port id="0" names="reshape/strided_slice/stack_2:0" precision="I64">
					<dim>1</dim>
				</port>
			</output>
		</layer>
		<layer id="28" name="reshape/strided_slice" type="StridedSlice" version="opset1">
			<data begin_mask="0" ellipsis_mask="0" end_mask="0" new_axis_mask="0" shrink_axis_mask="1"/>
			<input>
				<port id="0" precision="I32">
					<dim>2</dim>
				</port>
				<port id="1" precision="I64">
					<dim>1</dim>
				</port>
				<port id="2" precision="I64">
					<dim>1</dim>
				</port>
				<port id="3" precision="I64">
					<dim>1</dim>
				</port>
			</input>
			<output>
				<port id="4" names="reshape/strided_slice:0" precision="I32"/>
			</output>
		</layer>
		<layer id="29" name="reshape/Reshape/shape/Unsqueeze_input_port_1/value" type="Const" version="opset1">
			<data element_type="i64" offset="2516" shape="1" size="8"/>
			<output>
				<port id="0" precision="I64">
					<dim>1</dim>
				</port>
			</output>
		</layer>
		<layer id="30" name="reshape/Reshape/shape/Unsqueeze" type="Unsqueeze" version="opset1">
			<input>
				<port id="0" precision="I32"/>
				<port id="1" precision="I64">
					<dim>1</dim>
				</port>
			</input>
			<output>
				<port id="2" precision="I32">
					<dim>1</dim>
				</port>
			</output>
		</layer>
		<layer id="31" name="reshape/Reshape/shape/Unsqueeze1504" type="Const" version="opset1">
			<data element_type="i32" offset="2532" shape="1" size="4"/>
			<output>
				<port id="0" precision="I32">
					<dim>1</dim>
				</port>
			</output>
		</layer>
		<layer id="32" name="reshape/Reshape/shape/Unsqueeze1506" type="Const" version="opset1">
			<data element_type="i32" offset="2532" shape="1" size="4"/>
			<output>
				<port id="0" precision="I32">
					<dim>1</dim>
				</port>
			</output>
		</layer>
		<layer id="33" name="reshape/Reshape/shape/Unsqueeze1508" type="Const" version="opset1">
			<data element_type="i32" offset="2536" shape="1" size="4"/>
			<output>
				<port id="0" precision="I32">
					<dim>1</dim>
				</port>
			</output>
		</layer>
		<layer id="34" name="reshape/Reshape/shape" type="Concat" version="opset1">
			<data axis="0"/>
			<input>
				<port id="0" precision="I32">
					<dim>1</dim>
				</port>
				<port id="1" precision="I32">
					<dim>1</dim>
				</port>
				<port id="2" precision="I32">
					<dim>1</dim>
				</port>
				<port id="3" precision="I32">
					<dim>1</dim>
				</port>
			</input>
			<output>
				<port id="4" precision="I32">
					<dim>4</dim>
				</port>
			</output>
		</layer>
		<layer id="35" name="reshape/Reshape/Cast_1" type="Convert" version="opset1">
			<data destination_type="i64"/>
			<input>
				<port id="0" precision="I32">
					<dim>4</dim>
				</port>
			</input>
			<output>
				<port id="1" names="reshape/Reshape/shape:0" precision="I64">
					<dim>4</dim>
				</port>
			</output>
		</layer>
		<layer id="36" name="reshape/Reshape" type="Reshape" version="opset1">
			<data special_zero="false"/>
			<input>
				<port id="0" precision="FP32">
					<dim>1</dim>
					<dim>16</dim>
				</port>
				<port id="1" precision="I64">
					<dim>4</dim>
				</port>
			</input>
			<output>
				<port id="2" precision="FP32">
					<dim>1</dim>
					<dim>1</dim>
					<dim>1</dim>
					<dim>16</dim>
				</port>
			</output>
		</layer>
		<layer id="37" name="reshape/Reshape/Transpose/value1404723062" type="Const" version="opset1">
			<data element_type="i64" offset="2540" shape="4" size="32"/>
			<output>
				<port id="0" precision="I64">
					<dim>4</dim>
				</port>
			</output>
		</layer>
		<layer id="38" name="reshape/Reshape/Transpose" type="Transpose" version="opset1">
			<input>
				<port id="0" precision="FP32">
					<dim>1</dim>
					<dim>1</dim>
					<dim>1</dim>
					<dim>16</dim>
				</port>
				<port id="1" precision="I64">
					<dim>4</dim>
				</port>
			</input>
			<output>
				<port id="2" names="reshape/Reshape:0" precision="FP32">
					<dim>1</dim>
					<dim>16</dim>
					<dim>1</dim>
					<dim>1</dim>
				</port>
			</output>
		</layer>
		<layer id="39" name="expanded_conv/squeeze_excite/Conv/Conv2D/ReadVariableOp" type="Const" version="opset1">
			<data element_type="f32" offset="2572" shape="8, 16, 1, 1" size="512"/>
			<output>
				<port id="0" names="expanded_conv/squeeze_excite/Conv/Conv2D/ReadVariableOp:0" precision="FP32">
					<dim>8</dim>
					<dim>16</dim>
					<dim>1</dim>
					<dim>1</dim>
				</port>
			</output>
		</layer>
		<layer id="40" name="expanded_conv/squeeze_excite/Conv/Conv2D" type="Convolution" version="opset1">
			<data auto_pad="same_upper" dilations="1, 1" pads_begin="0, 0" pads_end="0, 0" strides="1, 1"/>
			<input>
				<port id="0" precision="FP32">
					<dim>1</dim>
					<dim>16</dim>
					<dim>1</dim>
					<dim>1</dim>
				</port>
				<port id="1" precision="FP32">
					<dim>8</dim>
					<dim>16</dim>
					<dim>1</dim>
					<dim>1</dim>
				</port>
			</input>
			<output>
				<port id="2" names="expanded_conv/squeeze_excite/Conv/Conv2D:0" precision="FP32">
					<dim>1</dim>
					<dim>8</dim>
					<dim>1</dim>
					<dim>1</dim>
				</port>
			</output>
		</layer>
		<layer id="41" name="expanded_conv/squeeze_excite/Conv/BiasAdd/ReadVariableOp" type="Const" version="opset1">
			<data element_type="f32" offset="3084" shape="1, 8, 1, 1" size="32"/>
			<output>
				<port id="0" names="expanded_conv/squeeze_excite/Conv/BiasAdd/ReadVariableOp:0" precision="FP32">
					<dim>1</dim>
					<dim>8</dim>
					<dim>1</dim>
					<dim>1</dim>
				</port>
			</output>
		</layer>
		<layer id="42" name="expanded_conv/squeeze_excite/Conv/BiasAdd/Add" type="Add" version="opset1">
			<data auto_broadcast="numpy"/>
			<input>
				<port id="0" precision="FP32">
					<dim>1</dim>
					<dim>8</dim>
					<dim>1</dim>
					<dim>1</dim>
				</port>
				<port id="1" precision="FP32">
					<dim>1</dim>
					<dim>8</dim>
					<dim>1</dim>
					<dim>1</dim>
				</port>
			</input>
			<output>
				<port id="2" names="expanded_conv/squeeze_excite/Conv/BiasAdd:0" precision="FP32">
					<dim>1</dim>
					<dim>8</dim>
					<dim>1</dim>
					<dim>1</dim>
				</port>
			</output>
		</layer>
		<layer id="43" name="expanded_conv/squeeze_excite/Relu/Relu" type="ReLU" version="opset1">
			<input>
				<port id="0" precision="FP32">
					<dim>1</dim>
					<dim>8</dim>
					<dim>1</dim>
					<dim>1</dim>
				</port>
			</input>
			<output>
				<port id="1" names="expanded_conv/squeeze_excite/Relu/Relu:0" precision="FP32">
					<dim>1</dim>
					<dim>8</dim>
					<dim>1</dim>
					<dim>1</dim>
				</port>
			</output>
		</layer>
		<layer id="44" name="expanded_conv/squeeze_excite/Conv_1/Conv2D/ReadVariableOp" type="Const" version="opset1">
			<data element_type="f32" offset="3116" shape="16, 8, 1, 1" size="512"/>
			<output>
				<port id="0" names="expanded_conv/squeeze_excite/Conv_1/Conv2D/ReadVariableOp:0" precision="FP32">
					<dim>16</dim>
					<dim>8</dim>
					<dim>1</dim>
					<dim>1</dim>
				</port>
			</output>
		</layer>
		<layer id="45" name="expanded_conv/squeeze_excite/Conv_1/Conv2D" type="Convolution" version="opset1">
			<data auto_pad="same_upper" dilations="1, 1" pads_begin="0, 0" pads_end="0, 0" strides="1, 1"/>
			<input>
				<port id="0" precision="FP32">
					<dim>1</dim>
					<dim>8</dim>
					<dim>1</dim>
					<dim>1</dim>
				</port>
				<port id="1" precision="FP32">
					<dim>16</dim>
					<dim>8</dim>
					<dim>1</dim>
					<dim>1</dim>
				</port>
			</input>
			<output>
				<port id="2" names="expanded_conv/squeeze_excite/Conv_1/Conv2D:0" precision="FP32">
					<dim>1</dim>
					<dim>16</dim>
					<dim>1</dim>
					<dim>1</dim>
				</port>
			</output>
		</layer>
		<layer id="46" name="expanded_conv/squeeze_excite/Conv_1/BiasAdd/ReadVariableOp" type="Const" version="opset1">
			<data element_type="f32" offset="3628" shape="1, 16, 1, 1" size="64"/>
			<output>
				<port id="0" names="expanded_conv/squeeze_excite/Conv_1/BiasAdd/ReadVariableOp:0" precision="FP32">
					<dim>1</dim>
					<dim>16</dim>
					<dim>1</dim>
					<dim>1</dim>
				</port>
			</output>
		</layer>
		<layer id="47" name="expanded_conv/squeeze_excite/Conv_1/BiasAdd/Add" type="Add" version="opset1">
			<data auto_broadcast="numpy"/>
			<input>
				<port id="0" precision="FP32">
					<dim>1</dim>
					<dim>16</dim>
					<dim>1</dim>
					<dim>1</dim>
				</port>
				<port id="1" precision="FP32">
					<dim>1</dim>
					<dim>16</dim>
					<dim>1</dim>
					<dim>1</dim>
				</port>
			</input>
			<output>
				<port id="2" names="expanded_conv/squeeze_excite/Conv_1/BiasAdd:0" precision="FP32">
					<dim>1</dim>
					<dim>16</dim>
					<dim>1</dim>
					<dim>1</dim>
				</port>
			</output>
		</layer>
		<layer id="48" name="activation_2/mul" type="HSigmoid" version="opset5">
			<input>
				<port id="0" precision="FP32">
					<dim>1</dim>
					<dim>16</dim>
					<dim>1</dim>
					<dim>1</dim>
				</port>
			</input>
			<output>
				<port id="1" names="activation_2/mul:0" precision="FP32">
					<dim>1</dim>
					<dim>16</dim>
					<dim>1</dim>
					<dim>1</dim>
				</port>
			</output>
		</layer>
		<layer id="49" name="expanded_conv/squeeze_excite/Mul/mul" type="Multiply" version="opset1">
			<data auto_broadcast="numpy"/>
			<input>
				<port id="0" precision="FP32">
					<dim>1</dim>
					<dim>16</dim>
					<dim>96</dim>
					<dim>96</dim>
				</port>
				<port id="1" precision="FP32">
					<dim>1</dim>
					<dim>16</dim>
					<dim>1</dim>
					<dim>1</dim>
				</port>
			</input>
			<output>
				<port id="2" names="expanded_conv/squeeze_excite/Mul/mul:0" precision="FP32">
					<dim>1</dim>
					<dim>16</dim>
					<dim>96</dim>
					<dim>96</dim>
				</port>
			</output>
		</layer>
		<layer id="50" name="expanded_conv/project/BatchNorm/batchnorm/mul_1_copy" type="Const" version="opset1">
			<data element_type="f32" offset="3692" shape="16, 16, 1, 1" size="1024"/>
			<output>
				<port id="0" names="expanded_conv/project/Conv2D/ReadVariableOp:0" precision="FP32">
					<dim>16</dim>
					<dim>16</dim>
					<dim>1</dim>
					<dim>1</dim>
				</port>
			</output>
		</layer>
		<layer id="51" name="expanded_conv/project/Conv2D" type="Convolution" version="opset1">
			<data auto_pad="same_upper" dilations="1, 1" pads_begin="0, 0" pads_end="0, 0" strides="1, 1"/>
			<input>
				<port id="0" precision="FP32">
					<dim>1</dim>
					<dim>16</dim>
					<dim>96</dim>
					<dim>96</dim>
				</port>
				<port id="1" precision="FP32">
					<dim>16</dim>
					<dim>16</dim>
					<dim>1</dim>
					<dim>1</dim>
				</port>
			</input>
			<output>
				<port id="2" names="expanded_conv/project/BatchNorm/batchnorm/mul_1:0" precision="FP32">
					<dim>1</dim>
					<dim>16</dim>
					<dim>96</dim>
					<dim>96</dim>
				</port>
			</output>
		</layer>
		<layer id="52" name="expanded_conv/project/BatchNorm/batchnorm/sub" type="Const" version="opset1">
			<data element_type="f32" offset="4716" shape="1, 16, 1, 1" size="64"/>
			<output>
				<port id="0" names="expanded_conv/project/BatchNorm/batchnorm/sub:0" precision="FP32">
					<dim>1</dim>
					<dim>16</dim>
					<dim>1</dim>
					<dim>1</dim>
				</port>
			</output>
		</layer>
		<layer id="53" name="expanded_conv/project/BatchNorm/batchnorm/add_1" type="Add" version="opset1">
			<data auto_broadcast="numpy"/>
			<input>
				<port id="0" precision="FP32">
					<dim>1</dim>
					<dim>16</dim>
					<dim>96</dim>
					<dim>96</dim>
				</port>
				<port id="1" precision="FP32">
					<dim>1</dim>
					<dim>16</dim>
					<dim>1</dim>
					<dim>1</dim>
				</port>
			</input>
			<output>
				<port id="2" names="expanded_conv/project/BatchNorm/batchnorm/add_1:0" precision="FP32">
					<dim>1</dim>
					<dim>16</dim>
					<dim>96</dim>
					<dim>96</dim>
				</port>
			</output>
		</layer>
		<layer id="54" name="expanded_conv_1/expand/BatchNorm/batchnorm/mul_1_copy" type="Const" version="opset1">
			<data element_type="f32" offset="4780" shape="72, 16, 1, 1" size="4608"/>
			<output>
				<port id="0" names="expanded_conv_1/expand/Conv2D/ReadVariableOp:0" precision="FP32">
					<dim>72</dim>
					<dim>16</dim>
					<dim>1</dim>
					<dim>1</dim>
				</port>
			</output>
		</layer>
		<layer id="55" name="expanded_conv_1/expand/Conv2D" type="Convolution" version="opset1">
			<data auto_pad="same_upper" dilations="1, 1" pads_begin="0, 0" pads_end="0, 0" strides="1, 1"/>
			<input>
				<port id="0" precision="FP32">
					<dim>1</dim>
					<dim>16</dim>
					<dim>96</dim>
					<dim>96</dim>
				</port>
				<port id="1" precision="FP32">
					<dim>72</dim>
					<dim>16</dim>
					<dim>1</dim>
					<dim>1</dim>
				</port>
			</input>
			<output>
				<port id="2" names="expanded_conv_1/expand/BatchNorm/batchnorm/mul_1:0" precision="FP32">
					<dim>1</dim>
					<dim>72</dim>
					<dim>96</dim>
					<dim>96</dim>
				</port>
			</output>
		</layer>
		<layer id="56" name="expanded_conv_1/expand/BatchNorm/batchnorm/sub" type="Const" version="opset1">
			<data element_type="f32" offset="9388" shape="1, 72, 1, 1" size="288"/>
			<output>
				<port id="0" names="expanded_conv_1/expand/BatchNorm/batchnorm/sub:0" precision="FP32">
					<dim>1</dim>
					<dim>72</dim>
					<dim>1</dim>
					<dim>1</dim>
				</port>
			</output>
		</layer>
		<layer id="57" name="expanded_conv_1/expand/BatchNorm/batchnorm/add_1" type="Add" version="opset1">
			<data auto_broadcast="numpy"/>
			<input>
				<port id="0" precision="FP32">
					<dim>1</dim>
					<dim>72</dim>
					<dim>96</dim>
					<dim>96</dim>
				</port>
				<port id="1" precision="FP32">
					<dim>1</dim>
					<dim>72</dim>
					<dim>1</dim>
					<dim>1</dim>
				</port>
			</input>
			<output>
				<port id="2" names="expanded_conv_1/expand/BatchNorm/batchnorm/add_1:0" precision="FP32">
					<dim>1</dim>
					<dim>72</dim>
					<dim>96</dim>
					<dim>96</dim>
				</port>
			</output>
		</layer>
		<layer id="58" name="activation_3/Relu" type="ReLU" version="opset1">
			<input>
				<port id="0" precision="FP32">
					<dim>1</dim>
					<dim>72</dim>
					<dim>96</dim>
					<dim>96</dim>
				</port>
			</input>
			<output>
				<port id="1" names="activation_3/Relu:0" precision="FP32">
					<dim>1</dim>
					<dim>72</dim>
					<dim>96</dim>
					<dim>96</dim>
				</port>
			</output>
		</layer>
		<layer id="59" name="1487622819" type="Const" version="opset1">
			<data element_type="i64" offset="0" shape="4" size="32"/>
			<output>
				<port id="0" precision="I64">
					<dim>4</dim>
				</port>
			</output>
		</layer>
		<layer id="60" name="1488222798" type="Const" version="opset1">
			<data element_type="i64" offset="32" shape="4" size="32"/>
			<output>
				<port id="0" precision="I64">
					<dim>4</dim>
				</port>
			</output>
		</layer>
		<layer id="61" name="expanded_conv_1/depthwise/pad/Pad/pad_value_convert_input_port_0/value" type="Const" version="opset1">
			<data element_type="f32" offset="64" shape="" size="4"/>
			<output>
				<port id="0" precision="FP32"/>
			</output>
		</layer>
		<layer id="62" name="expanded_conv_1/depthwise/pad/Pad/pad_value_convert" type="ConvertLike" version="opset1">
			<input>
				<port id="0" precision="FP32"/>
				<port id="1" precision="FP32">
					<dim>1</dim>
					<dim>72</dim>
					<dim>96</dim>
					<dim>96</dim>
				</port>
			</input>
			<output>
				<port id="2" precision="FP32"/>
			</output>
		</layer>
		<layer id="63" name="expanded_conv_1/depthwise/pad/Pad" type="Pad" version="opset1">
			<data pad_mode="constant"/>
			<input>
				<port id="0" precision="FP32">
					<dim>1</dim>
					<dim>72</dim>
					<dim>96</dim>
					<dim>96</dim>
				</port>
				<port id="1" precision="I64">
					<dim>4</dim>
				</port>
				<port id="2" precision="I64">
					<dim>4</dim>
				</port>
				<port id="3" precision="FP32"/>
			</input>
			<output>
				<port id="4" names="expanded_conv_1/depthwise/pad/Pad:0" precision="FP32">
					<dim>1</dim>
					<dim>72</dim>
					<dim>97</dim>
					<dim>97</dim>
				</port>
			</output>
		</layer>
		<layer id="64" name="expanded_conv_1/depthwise/BatchNorm/batchnorm/mul_1_copy" type="Const" version="opset1">
			<data element_type="f32" offset="9676" shape="72, 1, 1, 3, 3" size="2592"/>
			<output>
				<port id="0" names="expanded_conv_1/depthwise/Conv/depthwise/ReadVariableOp:0" precision="FP32">
					<dim>72</dim>
					<dim>1</dim>
					<dim>1</dim>
					<dim>3</dim>
					<dim>3</dim>
				</port>
			</output>
		</layer>
		<layer id="65" name="expanded_conv_1/depthwise/Conv/depthwise" type="GroupConvolution" version="opset1">
			<data auto_pad="valid" dilations="1, 1" pads_begin="0, 0" pads_end="0, 0" strides="2, 2"/>
			<input>
				<port id="0" precision="FP32">
					<dim>1</dim>
					<dim>72</dim>
					<dim>97</dim>
					<dim>97</dim>
				</port>
				<port id="1" precision="FP32">
					<dim>72</dim>
					<dim>1</dim>
					<dim>1</dim>
					<dim>3</dim>
					<dim>3</dim>
				</port>
			</input>
			<output>
				<port id="2" names="expanded_conv_1/depthwise/BatchNorm/batchnorm/mul_1:0" precision="FP32">
					<dim>1</dim>
					<dim>72</dim>
					<dim>48</dim>
					<dim>48</dim>
				</port>
			</output>
		</layer>
		<layer id="66" name="expanded_conv_1/depthwise/BatchNorm/batchnorm/sub" type="Const" version="opset1">
			<data element_type="f32" offset="12268" shape="1, 72, 1, 1" size="288"/>
			<output>
				<port id="0" names="expanded_conv_1/depthwise/BatchNorm/batchnorm/sub:0" precision="FP32">
					<dim>1</dim>
					<dim>72</dim>
					<dim>1</dim>
					<dim>1</dim>
				</port>
			</output>
		</layer>
		<layer id="67" name="expanded_conv_1/depthwise/BatchNorm/batchnorm/add_1" type="Add" version="opset1">
			<data auto_broadcast="numpy"/>
			<input>
				<port id="0" precision="FP32">
					<dim>1</dim>
					<dim>72</dim>
					<dim>48</dim>
					<dim>48</dim>
				</port>
				<port id="1" precision="FP32">
					<dim>1</dim>
					<dim>72</dim>
					<dim>1</dim>
					<dim>1</dim>
				</port>
			</input>
			<output>
				<port id="2" names="expanded_conv_1/depthwise/BatchNorm/batchnorm/add_1:0" precision="FP32">
					<dim>1</dim>
					<dim>72</dim>
					<dim>48</dim>
					<dim>48</dim>
				</port>
			</output>
		</layer>
		<layer id="68" name="activation_4/Relu" type="ReLU" version="opset1">
			<input>
				<port id="0" precision="FP32">
					<dim>1</dim>
					<dim>72</dim>
					<dim>48</dim>
					<dim>48</dim>
				</port>
			</input>
			<output>
				<port id="1" names="activation_4/Relu:0" precision="FP32">
					<dim>1</dim>
					<dim>72</dim>
					<dim>48</dim>
					<dim>48</dim>
				</port>
			</output>
		</layer>
		<layer id="69" name="expanded_conv_1/project/BatchNorm/batchnorm/mul_1_copy" type="Const" version="opset1">
			<data element_type="f32" offset="12556" shape="24, 72, 1, 1" size="6912"/>
			<output>
				<port id="0" names="expanded_conv_1/project/Conv2D/ReadVariableOp:0" precision="FP32">
					<dim>24</dim>
					<dim>72</dim>
					<dim>1</dim>
					<dim>1</dim>
				</port>
			</output>
		</layer>
		<layer id="70" name="expanded_conv_1/project/Conv2D" type="Convolution" version="opset1">
			<data auto_pad="same_upper" dilations="1, 1" pads_begin="0, 0" pads_end="0, 0" strides="1, 1"/>
			<input>
				<port id="0" precision="FP32">
					<dim>1</dim>
					<dim>72</dim>
					<dim>48</dim>
					<dim>48</dim>
				</port>
				<port id="1" precision="FP32">
					<dim>24</dim>
					<dim>72</dim>
					<dim>1</dim>
					<dim>1</dim>
				</port>
			</input>
			<output>
				<port id="2" names="expanded_conv_1/project/BatchNorm/batchnorm/mul_1:0" precision="FP32">
					<dim>1</dim>
					<dim>24</dim>
					<dim>48</dim>
					<dim>48</dim>
				</port>
			</output>
		</layer>
		<layer id="71" name="expanded_conv_1/project/BatchNorm/batchnorm/sub" type="Const" version="opset1">
			<data element_type="f32" offset="19468" shape="1, 24, 1, 1" size="96"/>
			<output>
				<port id="0" names="expanded_conv_1/project/BatchNorm/batchnorm/sub:0" precision="FP32">
					<dim>1</dim>
					<dim>24</dim>
					<dim>1</dim>
					<dim>1</dim>
				</port>
			</output>
		</layer>
		<layer id="72" name="expanded_conv_1/project/BatchNorm/batchnorm/add_1" type="Add" version="opset1">
			<data auto_broadcast="numpy"/>
			<input>
				<port id="0" precision="FP32">
					<dim>1</dim>
					<dim>24</dim>
					<dim>48</dim>
					<dim>48</dim>
				</port>
				<port id="1" precision="FP32">
					<dim>1</dim>
					<dim>24</dim>
					<dim>1</dim>
					<dim>1</dim>
				</port>
			</input>
			<output>
				<port id="2" names="expanded_conv_1/project/BatchNorm/batchnorm/add_1:0" precision="FP32">
					<dim>1</dim>
					<dim>24</dim>
					<dim>48</dim>
					<dim>48</dim>
				</port>
			</output>
		</layer>
		<layer id="73" name="expanded_conv_2/expand/BatchNorm/batchnorm/mul_1_copy" type="Const" version="opset1">
			<data element_type="f32" offset="19564" shape="88, 24, 1, 1" size="8448"/>
			<output>
				<port id="0" names="expanded_conv_2/expand/Conv2D/ReadVariableOp:0" precision="FP32">
					<dim>88</dim>
					<dim>24</dim>
					<dim>1</dim>
					<dim>1</dim>
				</port>
			</output>
		</layer>
		<layer id="74" name="expanded_conv_2/expand/Conv2D" type="Convolution" version="opset1">
			<data auto_pad="same_upper" dilations="1, 1" pads_begin="0, 0" pads_end="0, 0" strides="1, 1"/>
			<input>
				<port id="0" precision="FP32">
					<dim>1</dim>
					<dim>24</dim>
					<dim>48</dim>
					<dim>48</dim>
				</port>
				<port id="1" precision="FP32">
					<dim>88</dim>
					<dim>24</dim>
					<dim>1</dim>
					<dim>1</dim>
				</port>
			</input>
			<output>
				<port id="2" names="expanded_conv_2/expand/BatchNorm/batchnorm/mul_1:0" precision="FP32">
					<dim>1</dim>
					<dim>88</dim>
					<dim>48</dim>
					<dim>48</dim>
				</port>
			</output>
		</layer>
		<layer id="75" name="expanded_conv_2/expand/BatchNorm/batchnorm/sub" type="Const" version="opset1">
			<data element_type="f32" offset="28012" shape="1, 88, 1, 1" size="352"/>
			<output>
				<port id="0" names="expanded_conv_2/expand/BatchNorm/batchnorm/sub:0" precision="FP32">
					<dim>1</dim>
					<dim>88</dim>
					<dim>1</dim>
					<dim>1</dim>
				</port>
			</output>
		</layer>
		<layer id="76" name="expanded_conv_2/expand/BatchNorm/batchnorm/add_1" type="Add" version="opset1">
			<data auto_broadcast="numpy"/>
			<input>
				<port id="0" precision="FP32">
					<dim>1</dim>
					<dim>88</dim>
					<dim>48</dim>
					<dim>48</dim>
				</port>
				<port id="1" precision="FP32">
					<dim>1</dim>
					<dim>88</dim>
					<dim>1</dim>
					<dim>1</dim>
				</port>
			</input>
			<output>
				<port id="2" names="expanded_conv_2/expand/BatchNorm/batchnorm/add_1:0" precision="FP32">
					<dim>1</dim>
					<dim>88</dim>
					<dim>48</dim>
					<dim>48</dim>
				</port>
			</output>
		</layer>
		<layer id="77" name="activation_5/Relu" type="ReLU" version="opset1">
			<input>
				<port id="0" precision="FP32">
					<dim>1</dim>
					<dim>88</dim>
					<dim>48</dim>
					<dim>48</dim>
				</port>
			</input>
			<output>
				<port id="1" names="activation_5/Relu:0" precision="FP32">
					<dim>1</dim>
					<dim>88</dim>
					<dim>48</dim>
					<dim>48</dim>
				</port>
			</output>
		</layer>
		<layer id="78" name="expanded_conv_2/depthwise/BatchNorm/batchnorm/mul_1_copy" type="Const" version="opset1">
			<data element_type="f32" offset="28364" shape="88, 1, 1, 3, 3" size="3168"/>
			<output>
				<port id="0" names="expanded_conv_2/depthwise/Conv/depthwise/ReadVariableOp:0" precision="FP32">
					<dim>88</dim>
					<dim>1</dim>
					<dim>1</dim>
					<dim>3</dim>
					<dim>3</dim>
				</port>
			</output>
		</layer>
		<layer id="79" name="expanded_conv_2/depthwise/Conv/depthwise" type="GroupConvolution" version="opset1">
			<data auto_pad="same_upper" dilations="1, 1" pads_begin="1, 1" pads_end="1, 1" strides="1, 1"/>
			<input>
				<port id="0" precision="FP32">
					<dim>1</dim>
					<dim>88</dim>
					<dim>48</dim>
					<dim>48</dim>
				</port>
				<port id="1" precision="FP32">
					<dim>88</dim>
					<dim>1</dim>
					<dim>1</dim>
					<dim>3</dim>
					<dim>3</dim>
				</port>
			</input>
			<output>
				<port id="2" names="expanded_conv_2/depthwise/BatchNorm/batchnorm/mul_1:0" precision="FP32">
					<dim>1</dim>
					<dim>88</dim>
					<dim>48</dim>
					<dim>48</dim>
				</port>
			</output>
		</layer>
		<layer id="80" name="expanded_conv_2/depthwise/BatchNorm/batchnorm/sub" type="Const" version="opset1">
			<data element_type="f32" offset="31532" shape="1, 88, 1, 1" size="352"/>
			<output>
				<port id="0" names="expanded_conv_2/depthwise/BatchNorm/batchnorm/sub:0" precision="FP32">
					<dim>1</dim>
					<dim>88</dim>
					<dim>1</dim>
					<dim>1</dim>
				</port>
			</output>
		</layer>
		<layer id="81" name="expanded_conv_2/depthwise/BatchNorm/batchnorm/add_1" type="Add" version="opset1">
			<data auto_broadcast="numpy"/>
			<input>
				<port id="0" precision="FP32">
					<dim>1</dim>
					<dim>88</dim>
					<dim>48</dim>
					<dim>48</dim>
				</port>
				<port id="1" precision="FP32">
					<dim>1</dim>
					<dim>88</dim>
					<dim>1</dim>
					<dim>1</dim>
				</port>
			</input>
			<output>
				<port id="2" names="expanded_conv_2/depthwise/BatchNorm/batchnorm/add_1:0" precision="FP32">
					<dim>1</dim>
					<dim>88</dim>
					<dim>48</dim>
					<dim>48</dim>
				</port>
			</output>
		</layer>
		<layer id="82" name="activation_6/Relu" type="ReLU" version="opset1">
			<input>
				<port id="0" precision="FP32">
					<dim>1</dim>
					<dim>88</dim>
					<dim>48</dim>
					<dim>48</dim>
				</port>
			</input>
			<output>
				<port id="1" names="activation_6/Relu:0" precision="FP32">
					<dim>1</dim>
					<dim>88</dim>
					<dim>48</dim>
					<dim>48</dim>
				</port>
			</output>
		</layer>
		<layer id="83" name="expanded_conv_2/project/BatchNorm/batchnorm/mul_1_copy" type="Const" version="opset1">
			<data element_type="f32" offset="31884" shape="24, 88, 1, 1" size="8448"/>
			<output>
				<port id="0" names="expanded_conv_2/project/Conv2D/ReadVariableOp:0" precision="FP32">
					<dim>24</dim>
					<dim>88</dim>
					<dim>1</dim>
					<dim>1</dim>
				</port>
			</output>
		</layer>
		<layer id="84" name="expanded_conv_2/project/Conv2D" type="Convolution" version="opset1">
			<data auto_pad="same_upper" dilations="1, 1" pads_begin="0, 0" pads_end="0, 0" strides="1, 1"/>
			<input>
				<port id="0" precision="FP32">
					<dim>1</dim>
					<dim>88</dim>
					<dim>48</dim>
					<dim>48</dim>
				</port>
				<port id="1" precision="FP32">
					<dim>24</dim>
					<dim>88</dim>
					<dim>1</dim>
					<dim>1</dim>
				</port>
			</input>
			<output>
				<port id="2" names="expanded_conv_2/project/BatchNorm/batchnorm/mul_1:0" precision="FP32">
					<dim>1</dim>
					<dim>24</dim>
					<dim>48</dim>
					<dim>48</dim>
				</port>
			</output>
		</layer>
		<layer id="85" name="expanded_conv_2/project/BatchNorm/batchnorm/sub" type="Const" version="opset1">
			<data element_type="f32" offset="40332" shape="1, 24, 1, 1" size="96"/>
			<output>
				<port id="0" names="expanded_conv_2/project/BatchNorm/batchnorm/sub:0" precision="FP32">
					<dim>1</dim>
					<dim>24</dim>
					<dim>1</dim>
					<dim>1</dim>
				</port>
			</output>
		</layer>
		<layer id="86" name="expanded_conv_2/project/BatchNorm/batchnorm/add_1" type="Add" version="opset1">
			<data auto_broadcast="numpy"/>
			<input>
				<port id="0" precision="FP32">
					<dim>1</dim>
					<dim>24</dim>
					<dim>48</dim>
					<dim>48</dim>
				</port>
				<port id="1" precision="FP32">
					<dim>1</dim>
					<dim>24</dim>
					<dim>1</dim>
					<dim>1</dim>
				</port>
			</input>
			<output>
				<port id="2" names="expanded_conv_2/project/BatchNorm/batchnorm/add_1:0" precision="FP32">
					<dim>1</dim>
					<dim>24</dim>
					<dim>48</dim>
					<dim>48</dim>
				</port>
			</output>
		</layer>
		<layer id="87" name="expanded_conv_2/Add/add" type="Add" version="opset1">
			<data auto_broadcast="numpy"/>
			<input>
				<port id="0" precision="FP32">
					<dim>1</dim>
					<dim>24</dim>
					<dim>48</dim>
					<dim>48</dim>
				</port>
				<port id="1" precision="FP32">
					<dim>1</dim>
					<dim>24</dim>
					<dim>48</dim>
					<dim>48</dim>
				</port>
			</input>
			<output>
				<port id="2" names="expanded_conv_2/Add/add:0" precision="FP32">
					<dim>1</dim>
					<dim>24</dim>
					<dim>48</dim>
					<dim>48</dim>
				</port>
			</output>
		</layer>
		<layer id="88" name="expanded_conv_3/expand/BatchNorm/batchnorm/mul_1_copy" type="Const" version="opset1">
			<data element_type="f32" offset="40428" shape="96, 24, 1, 1" size="9216"/>
			<output>
				<port id="0" names="expanded_conv_3/expand/Conv2D/ReadVariableOp:0" precision="FP32">
					<dim>96</dim>
					<dim>24</dim>
					<dim>1</dim>
					<dim>1</dim>
				</port>
			</output>
		</layer>
		<layer id="89" name="expanded_conv_3/expand/Conv2D" type="Convolution" version="opset1">
			<data auto_pad="same_upper" dilations="1, 1" pads_begin="0, 0" pads_end="0, 0" strides="1, 1"/>
			<input>
				<port id="0" precision="FP32">
					<dim>1</dim>
					<dim>24</dim>
					<dim>48</dim>
					<dim>48</dim>
				</port>
				<port id="1" precision="FP32">
					<dim>96</dim>
					<dim>24</dim>
					<dim>1</dim>
					<dim>1</dim>
				</port>
			</input>
			<output>
				<port id="2" names="expanded_conv_3/expand/BatchNorm/batchnorm/mul_1:0" precision="FP32">
					<dim>1</dim>
					<dim>96</dim>
					<dim>48</dim>
					<dim>48</dim>
				</port>
			</output>
		</layer>
		<layer id="90" name="expanded_conv_3/expand/BatchNorm/batchnorm/sub" type="Const" version="opset1">
			<data element_type="f32" offset="49644" shape="1, 96, 1, 1" size="384"/>
			<output>
				<port id="0" names="expanded_conv_3/expand/BatchNorm/batchnorm/sub:0" precision="FP32">
					<dim>1</dim>
					<dim>96</dim>
					<dim>1</dim>
					<dim>1</dim>
				</port>
			</output>
		</layer>
		<layer id="91" name="expanded_conv_3/expand/BatchNorm/batchnorm/add_1" type="Add" version="opset1">
			<data auto_broadcast="numpy"/>
			<input>
				<port id="0" precision="FP32">
					<dim>1</dim>
					<dim>96</dim>
					<dim>48</dim>
					<dim>48</dim>
				</port>
				<port id="1" precision="FP32">
					<dim>1</dim>
					<dim>96</dim>
					<dim>1</dim>
					<dim>1</dim>
				</port>
			</input>
			<output>
				<port id="2" names="expanded_conv_3/expand/BatchNorm/batchnorm/add_1:0" precision="FP32">
					<dim>1</dim>
					<dim>96</dim>
					<dim>48</dim>
					<dim>48</dim>
				</port>
			</output>
		</layer>
		<layer id="92" name="activation_7/activation_1/mul" type="HSigmoid" version="opset5">
			<input>
				<port id="0" precision="FP32">
					<dim>1</dim>
					<dim>96</dim>
					<dim>48</dim>
					<dim>48</dim>
				</port>
			</input>
			<output>
				<port id="1" names="activation_7/activation_1/mul:0" precision="FP32">
					<dim>1</dim>
					<dim>96</dim>
					<dim>48</dim>
					<dim>48</dim>
				</port>
			</output>
		</layer>
		<layer id="93" name="activation_7/multiply_1/mul" type="Multiply" version="opset1">
			<data auto_broadcast="numpy"/>
			<input>
				<port id="0" precision="FP32">
					<dim>1</dim>
					<dim>96</dim>
					<dim>48</dim>
					<dim>48</dim>
				</port>
				<port id="1" precision="FP32">
					<dim>1</dim>
					<dim>96</dim>
					<dim>48</dim>
					<dim>48</dim>
				</port>
			</input>
			<output>
				<port id="2" names="activation_7/multiply_1/mul:0" precision="FP32">
					<dim>1</dim>
					<dim>96</dim>
					<dim>48</dim>
					<dim>48</dim>
				</port>
			</output>
		</layer>
		<layer id="94" name="1488822582" type="Const" version="opset1">
			<data element_type="i64" offset="32" shape="4" size="32"/>
			<output>
				<port id="0" precision="I64">
					<dim>4</dim>
				</port>
			</output>
		</layer>
		<layer id="95" name="1489422510" type="Const" version="opset1">
			<data element_type="i64" offset="50028" shape="4" size="32"/>
			<output>
				<port id="0" precision="I64">
					<dim>4</dim>
				</port>
			</output>
		</layer>
		<layer id="96" name="expanded_conv_3/depthwise/pad/Pad/pad_value_convert_input_port_0/value" type="Const" version="opset1">
			<data element_type="f32" offset="64" shape="" size="4"/>
			<output>
				<port id="0" precision="FP32"/>
			</output>
		</layer>
		<layer id="97" name="expanded_conv_3/depthwise/pad/Pad/pad_value_convert" type="ConvertLike" version="opset1">
			<input>
				<port id="0" precision="FP32"/>
				<port id="1" precision="FP32">
					<dim>1</dim>
					<dim>96</dim>
					<dim>48</dim>
					<dim>48</dim>
				</port>
			</input>
			<output>
				<port id="2" precision="FP32"/>
			</output>
		</layer>
		<layer id="98" name="expanded_conv_3/depthwise/pad/Pad" type="Pad" version="opset1">
			<data pad_mode="constant"/>
			<input>
				<port id="0" precision="FP32">
					<dim>1</dim>
					<dim>96</dim>
					<dim>48</dim>
					<dim>48</dim>
				</port>
				<port id="1" precision="I64">
					<dim>4</dim>
				</port>
				<port id="2" precision="I64">
					<dim>4</dim>
				</port>
				<port id="3" precision="FP32"/>
			</input>
			<output>
				<port id="4" names="expanded_conv_3/depthwise/pad/Pad:0" precision="FP32">
					<dim>1</dim>
					<dim>96</dim>
					<dim>51</dim>
					<dim>51</dim>
				</port>
			</output>
		</layer>
		<layer id="99" name="expanded_conv_3/depthwise/BatchNorm/batchnorm/mul_1_copy" type="Const" version="opset1">
			<data element_type="f32" offset="50060" shape="96, 1, 1, 5, 5" size="9600"/>
			<output>
				<port id="0" names="expanded_conv_3/depthwise/Conv/depthwise/ReadVariableOp:0" precision="FP32">
					<dim>96</dim>
					<dim>1</dim>
					<dim>1</dim>
					<dim>5</dim>
					<dim>5</dim>
				</port>
			</output>
		</layer>
		<layer id="100" name="expanded_conv_3/depthwise/Conv/depthwise" type="GroupConvolution" version="opset1">
			<data auto_pad="valid" dilations="1, 1" pads_begin="0, 0" pads_end="0, 0" strides="2, 2"/>
			<input>
				<port id="0" precision="FP32">
					<dim>1</dim>
					<dim>96</dim>
					<dim>51</dim>
					<dim>51</dim>
				</port>
				<port id="1" precision="FP32">
					<dim>96</dim>
					<dim>1</dim>
					<dim>1</dim>
					<dim>5</dim>
					<dim>5</dim>
				</port>
			</input>
			<output>
				<port id="2" names="expanded_conv_3/depthwise/BatchNorm/batchnorm/mul_1:0" precision="FP32">
					<dim>1</dim>
					<dim>96</dim>
					<dim>24</dim>
					<dim>24</dim>
				</port>
			</output>
		</layer>
		<layer id="101" name="expanded_conv_3/depthwise/BatchNorm/batchnorm/sub" type="Const" version="opset1">
			<data element_type="f32" offset="59660" shape="1, 96, 1, 1" size="384"/>
			<output>
				<port id="0" names="expanded_conv_3/depthwise/BatchNorm/batchnorm/sub:0" precision="FP32">
					<dim>1</dim>
					<dim>96</dim>
					<dim>1</dim>
					<dim>1</dim>
				</port>
			</output>
		</layer>
		<layer id="102" name="expanded_conv_3/depthwise/BatchNorm/batchnorm/add_1" type="Add" version="opset1">
			<data auto_broadcast="numpy"/>
			<input>
				<port id="0" precision="FP32">
					<dim>1</dim>
					<dim>96</dim>
					<dim>24</dim>
					<dim>24</dim>
				</port>
				<port id="1" precision="FP32">
					<dim>1</dim>
					<dim>96</dim>
					<dim>1</dim>
					<dim>1</dim>
				</port>
			</input>
			<output>
				<port id="2" names="expanded_conv_3/depthwise/BatchNorm/batchnorm/add_1:0" precision="FP32">
					<dim>1</dim>
					<dim>96</dim>
					<dim>24</dim>
					<dim>24</dim>
				</port>
			</output>
		</layer>
		<layer id="103" name="activation_8/activation_2/mul" type="HSigmoid" version="opset5">
			<input>
				<port id="0" precision="FP32">
					<dim>1</dim>
					<dim>96</dim>
					<dim>24</dim>
					<dim>24</dim>
				</port>
			</input>
			<output>
				<port id="1" names="activation_8/activation_2/mul:0" precision="FP32">
					<dim>1</dim>
					<dim>96</dim>
					<dim>24</dim>
					<dim>24</dim>
				</port>
			</output>
		</layer>
		<layer id="104" name="activation_8/multiply_2/mul" type="Multiply" version="opset1">
			<data auto_broadcast="numpy"/>
			<input>
				<port id="0" precision="FP32">
					<dim>1</dim>
					<dim>96</dim>
					<dim>24</dim>
					<dim>24</dim>
				</port>
				<port id="1" precision="FP32">
					<dim>1</dim>
					<dim>96</dim>
					<dim>24</dim>
					<dim>24</dim>
				</port>
			</input>
			<output>
				<port id="2" precision="FP32">
					<dim>1</dim>
					<dim>96</dim>
					<dim>24</dim>
					<dim>24</dim>
				</port>
			</output>
		</layer>
		<layer id="105" name="expanded_conv_3/squeeze_excite/AvgPool/MeanGather1697622567" type="Const" version="opset1">
			<data element_type="i64" offset="2500" shape="2" size="16"/>
			<output>
				<port id="0" precision="I64">
					<dim>2</dim>
				</port>
			</output>
		</layer>
		<layer id="106" name="expanded_conv_3/squeeze_excite/AvgPool/Mean" type="ReduceMean" version="opset1">
			<data keep_dims="false"/>
			<input>
				<port id="0" precision="FP32">
					<dim>1</dim>
					<dim>96</dim>
					<dim>24</dim>
					<dim>24</dim>
				</port>
				<port id="1" precision="I64">
					<dim>2</dim>
				</port>
			</input>
			<output>
				<port id="2" names="expanded_conv_3/squeeze_excite/AvgPool/Mean:0" precision="FP32">
					<dim>1</dim>
					<dim>96</dim>
				</port>
			</output>
		</layer>
		<layer id="107" name="reshape_1/Shape" type="ShapeOf" version="opset3">
			<data output_type="i32"/>
			<input>
				<port id="0" precision="FP32">
					<dim>1</dim>
					<dim>96</dim>
				</port>
			</input>
			<output>
				<port id="1" names="reshape_1/Shape:0" precision="I32">
					<dim>2</dim>
				</port>
			</output>
		</layer>
		<layer id="108" name="reshape_1/strided_slice/stack" type="Const" version="opset1">
			<data element_type="i64" offset="2516" shape="1" size="8"/>
			<output>
				<port id="0" names="reshape_1/strided_slice/stack:0" precision="I64">
					<dim>1</dim>
				</port>
			</output>
		</layer>
		<layer id="109" name="reshape_1/strided_slice/stack_1" type="Const" version="opset1">
			<data element_type="i64" offset="2524" shape="1" size="8"/>
			<output>
				<port id="0" names="reshape_1/strided_slice/stack_1:0" precision="I64">
					<dim>1</dim>
				</port>
			</output>
		</layer>
		<layer id="110" name="reshape_1/strided_slice/stack_2" type="Const" version="opset1">
			<data element_type="i64" offset="2524" shape="1" size="8"/>
			<output>
				<port id="0" names="reshape_1/strided_slice/stack_2:0" precision="I64">
					<dim>1</dim>
				</port>
			</output>
		</layer>
		<layer id="111" name="reshape_1/strided_slice" type="StridedSlice" version="opset1">
			<data begin_mask="0" ellipsis_mask="0" end_mask="0" new_axis_mask="0" shrink_axis_mask="1"/>
			<input>
				<port id="0" precision="I32">
					<dim>2</dim>
				</port>
				<port id="1" precision="I64">
					<dim>1</dim>
				</port>
				<port id="2" precision="I64">
					<dim>1</dim>
				</port>
				<port id="3" precision="I64">
					<dim>1</dim>
				</port>
			</input>
			<output>
				<port id="4" names="reshape_1/strided_slice:0" precision="I32"/>
			</output>
		</layer>
		<layer id="112" name="reshape_1/Reshape/shape/Unsqueeze_input_port_1/value" type="Const" version="opset1">
			<data element_type="i64" offset="2516" shape="1" size="8"/>
			<output>
				<port id="0" precision="I64">
					<dim>1</dim>
				</port>
			</output>
		</layer>
		<layer id="113" name="reshape_1/Reshape/shape/Unsqueeze" type="Unsqueeze" version="opset1">
			<input>
				<port id="0" precision="I32"/>
				<port id="1" precision="I64">
					<dim>1</dim>
				</port>
			</input>
			<output>
				<port id="2" precision="I32">
					<dim>1</dim>
				</port>
			</output>
		</layer>
		<layer id="114" name="reshape_1/Reshape/shape/Unsqueeze1441" type="Const" version="opset1">
			<data element_type="i32" offset="2532" shape="1" size="4"/>
			<output>
				<port id="0" precision="I32">
					<dim>1</dim>
				</port>
			</output>
		</layer>
		<layer id="115" name="reshape_1/Reshape/shape/Unsqueeze1443" type="Const" version="opset1">
			<data element_type="i32" offset="2532" shape="1" size="4"/>
			<output>
				<port id="0" precision="I32">
					<dim>1</dim>
				</port>
			</output>
		</layer>
		<layer id="116" name="reshape_1/Reshape/shape/Unsqueeze1445" type="Const" version="opset1">
			<data element_type="i32" offset="60044" shape="1" size="4"/>
			<output>
				<port id="0" precision="I32">
					<dim>1</dim>
				</port>
			</output>
		</layer>
		<layer id="117" name="reshape_1/Reshape/shape" type="Concat" version="opset1">
			<data axis="0"/>
			<input>
				<port id="0" precision="I32">
					<dim>1</dim>
				</port>
				<port id="1" precision="I32">
					<dim>1</dim>
				</port>
				<port id="2" precision="I32">
					<dim>1</dim>
				</port>
				<port id="3" precision="I32">
					<dim>1</dim>
				</port>
			</input>
			<output>
				<port id="4" precision="I32">
					<dim>4</dim>
				</port>
			</output>
		</layer>
		<layer id="118" name="reshape_1/Reshape/Cast_1" type="Convert" version="opset1">
			<data destination_type="i64"/>
			<input>
				<port id="0" precision="I32">
					<dim>4</dim>
				</port>
			</input>
			<output>
				<port id="1" names="reshape_1/Reshape/shape:0" precision="I64">
					<dim>4</dim>
				</port>
			</output>
		</layer>
		<layer id="119" name="reshape_1/Reshape" type="Reshape" version="opset1">
			<data special_zero="false"/>
			<input>
				<port id="0" precision="FP32">
					<dim>1</dim>
					<dim>96</dim>
				</port>
				<port id="1" precision="I64">
					<dim>4</dim>
				</port>
			</input>
			<output>
				<port id="2" precision="FP32">
					<dim>1</dim>
					<dim>1</dim>
					<dim>1</dim>
					<dim>96</dim>
				</port>
			</output>
		</layer>
		<layer id="120" name="reshape_1/Reshape/Transpose/value1405122552" type="Const" version="opset1">
			<data element_type="i64" offset="2540" shape="4" size="32"/>
			<output>
				<port id="0" precision="I64">
					<dim>4</dim>
				</port>
			</output>
		</layer>
		<layer id="121" name="reshape_1/Reshape/Transpose" type="Transpose" version="opset1">
			<input>
				<port id="0" precision="FP32">
					<dim>1</dim>
					<dim>1</dim>
					<dim>1</dim>
					<dim>96</dim>
				</port>
				<port id="1" precision="I64">
					<dim>4</dim>
				</port>
			</input>
			<output>
				<port id="2" names="reshape_1/Reshape:0" precision="FP32">
					<dim>1</dim>
					<dim>96</dim>
					<dim>1</dim>
					<dim>1</dim>
				</port>
			</output>
		</layer>
		<layer id="122" name="expanded_conv_3/squeeze_excite/Conv/Conv2D/ReadVariableOp" type="Const" version="opset1">
			<data element_type="f32" offset="60048" shape="24, 96, 1, 1" size="9216"/>
			<output>
				<port id="0" names="expanded_conv_3/squeeze_excite/Conv/Conv2D/ReadVariableOp:0" precision="FP32">
					<dim>24</dim>
					<dim>96</dim>
					<dim>1</dim>
					<dim>1</dim>
				</port>
			</output>
		</layer>
		<layer id="123" name="expanded_conv_3/squeeze_excite/Conv/Conv2D" type="Convolution" version="opset1">
			<data auto_pad="same_upper" dilations="1, 1" pads_begin="0, 0" pads_end="0, 0" strides="1, 1"/>
			<input>
				<port id="0" precision="FP32">
					<dim>1</dim>
					<dim>96</dim>
					<dim>1</dim>
					<dim>1</dim>
				</port>
				<port id="1" precision="FP32">
					<dim>24</dim>
					<dim>96</dim>
					<dim>1</dim>
					<dim>1</dim>
				</port>
			</input>
			<output>
				<port id="2" names="expanded_conv_3/squeeze_excite/Conv/Conv2D:0" precision="FP32">
					<dim>1</dim>
					<dim>24</dim>
					<dim>1</dim>
					<dim>1</dim>
				</port>
			</output>
		</layer>
		<layer id="124" name="expanded_conv_3/squeeze_excite/Conv/BiasAdd/ReadVariableOp" type="Const" version="opset1">
			<data element_type="f32" offset="69264" shape="1, 24, 1, 1" size="96"/>
			<output>
				<port id="0" names="expanded_conv_3/squeeze_excite/Conv/BiasAdd/ReadVariableOp:0" precision="FP32">
					<dim>1</dim>
					<dim>24</dim>
					<dim>1</dim>
					<dim>1</dim>
				</port>
			</output>
		</layer>
		<layer id="125" name="expanded_conv_3/squeeze_excite/Conv/BiasAdd/Add" type="Add" version="opset1">
			<data auto_broadcast="numpy"/>
			<input>
				<port id="0" precision="FP32">
					<dim>1</dim>
					<dim>24</dim>
					<dim>1</dim>
					<dim>1</dim>
				</port>
				<port id="1" precision="FP32">
					<dim>1</dim>
					<dim>24</dim>
					<dim>1</dim>
					<dim>1</dim>
				</port>
			</input>
			<output>
				<port id="2" names="expanded_conv_3/squeeze_excite/Conv/BiasAdd:0" precision="FP32">
					<dim>1</dim>
					<dim>24</dim>
					<dim>1</dim>
					<dim>1</dim>
				</port>
			</output>
		</layer>
		<layer id="126" name="expanded_conv_3/squeeze_excite/Relu/Relu" type="ReLU" version="opset1">
			<input>
				<port id="0" precision="FP32">
					<dim>1</dim>
					<dim>24</dim>
					<dim>1</dim>
					<dim>1</dim>
				</port>
			</input>
			<output>
				<port id="1" names="expanded_conv_3/squeeze_excite/Relu/Relu:0" precision="FP32">
					<dim>1</dim>
					<dim>24</dim>
					<dim>1</dim>
					<dim>1</dim>
				</port>
			</output>
		</layer>
		<layer id="127" name="expanded_conv_3/squeeze_excite/Conv_1/Conv2D/ReadVariableOp" type="Const" version="opset1">
			<data element_type="f32" offset="69360" shape="96, 24, 1, 1" size="9216"/>
			<output>
				<port id="0" names="expanded_conv_3/squeeze_excite/Conv_1/Conv2D/ReadVariableOp:0" precision="FP32">
					<dim>96</dim>
					<dim>24</dim>
					<dim>1</dim>
					<dim>1</dim>
				</port>
			</output>
		</layer>
		<layer id="128" name="expanded_conv_3/squeeze_excite/Conv_1/Conv2D" type="Convolution" version="opset1">
			<data auto_pad="same_upper" dilations="1, 1" pads_begin="0, 0" pads_end="0, 0" strides="1, 1"/>
			<input>
				<port id="0" precision="FP32">
					<dim>1</dim>
					<dim>24</dim>
					<dim>1</dim>
					<dim>1</dim>
				</port>
				<port id="1" precision="FP32">
					<dim>96</dim>
					<dim>24</dim>
					<dim>1</dim>
					<dim>1</dim>
				</port>
			</input>
			<output>
				<port id="2" names="expanded_conv_3/squeeze_excite/Conv_1/Conv2D:0" precision="FP32">
					<dim>1</dim>
					<dim>96</dim>
					<dim>1</dim>
					<dim>1</dim>
				</port>
			</output>
		</layer>
		<layer id="129" name="expanded_conv_3/squeeze_excite/Conv_1/BiasAdd/ReadVariableOp" type="Const" version="opset1">
			<data element_type="f32" offset="78576" shape="1, 96, 1, 1" size="384"/>
			<output>
				<port id="0" names="expanded_conv_3/squeeze_excite/Conv_1/BiasAdd/ReadVariableOp:0" precision="FP32">
					<dim>1</dim>
					<dim>96</dim>
					<dim>1</dim>
					<dim>1</dim>
				</port>
			</output>
		</layer>
		<layer id="130" name="expanded_conv_3/squeeze_excite/Conv_1/BiasAdd/Add" type="Add" version="opset1">
			<data auto_broadcast="numpy"/>
			<input>
				<port id="0" precision="FP32">
					<dim>1</dim>
					<dim>96</dim>
					<dim>1</dim>
					<dim>1</dim>
				</port>
				<port id="1" precision="FP32">
					<dim>1</dim>
					<dim>96</dim>
					<dim>1</dim>
					<dim>1</dim>
				</port>
			</input>
			<output>
				<port id="2" names="expanded_conv_3/squeeze_excite/Conv_1/BiasAdd:0" precision="FP32">
					<dim>1</dim>
					<dim>96</dim>
					<dim>1</dim>
					<dim>1</dim>
				</port>
			</output>
		</layer>
		<layer id="131" name="activation_9/mul" type="HSigmoid" version="opset5">
			<input>
				<port id="0" precision="FP32">
					<dim>1</dim>
					<dim>96</dim>
					<dim>1</dim>
					<dim>1</dim>
				</port>
			</input>
			<output>
				<port id="1" names="activation_9/mul:0" precision="FP32">
					<dim>1</dim>
					<dim>96</dim>
					<dim>1</dim>
					<dim>1</dim>
				</port>
			</output>
		</layer>
		<layer id="132" name="expanded_conv_3/squeeze_excite/Mul/mul" type="Multiply" version="opset1">
			<data auto_broadcast="numpy"/>
			<input>
				<port id="0" precision="FP32">
					<dim>1</dim>
					<dim>96</dim>
					<dim>24</dim>
					<dim>24</dim>
				</port>
				<port id="1" precision="FP32">
					<dim>1</dim>
					<dim>96</dim>
					<dim>1</dim>
					<dim>1</dim>
				</port>
			</input>
			<output>
				<port id="2" names="expanded_conv_3/squeeze_excite/Mul/mul:0" precision="FP32">
					<dim>1</dim>
					<dim>96</dim>
					<dim>24</dim>
					<dim>24</dim>
				</port>
			</output>
		</layer>
		<layer id="133" name="expanded_conv_3/project/BatchNorm/batchnorm/mul_1_copy" type="Const" version="opset1">
			<data element_type="f32" offset="78960" shape="40, 96, 1, 1" size="15360"/>
			<output>
				<port id="0" names="expanded_conv_3/project/Conv2D/ReadVariableOp:0" precision="FP32">
					<dim>40</dim>
					<dim>96</dim>
					<dim>1</dim>
					<dim>1</dim>
				</port>
			</output>
		</layer>
		<layer id="134" name="expanded_conv_3/project/Conv2D" type="Convolution" version="opset1">
			<data auto_pad="same_upper" dilations="1, 1" pads_begin="0, 0" pads_end="0, 0" strides="1, 1"/>
			<input>
				<port id="0" precision="FP32">
					<dim>1</dim>
					<dim>96</dim>
					<dim>24</dim>
					<dim>24</dim>
				</port>
				<port id="1" precision="FP32">
					<dim>40</dim>
					<dim>96</dim>
					<dim>1</dim>
					<dim>1</dim>
				</port>
			</input>
			<output>
				<port id="2" names="expanded_conv_3/project/BatchNorm/batchnorm/mul_1:0" precision="FP32">
					<dim>1</dim>
					<dim>40</dim>
					<dim>24</dim>
					<dim>24</dim>
				</port>
			</output>
		</layer>
		<layer id="135" name="expanded_conv_3/project/BatchNorm/batchnorm/sub" type="Const" version="opset1">
			<data element_type="f32" offset="94320" shape="1, 40, 1, 1" size="160"/>
			<output>
				<port id="0" names="expanded_conv_3/project/BatchNorm/batchnorm/sub:0" precision="FP32">
					<dim>1</dim>
					<dim>40</dim>
					<dim>1</dim>
					<dim>1</dim>
				</port>
			</output>
		</layer>
		<layer id="136" name="expanded_conv_3/project/BatchNorm/batchnorm/add_1" type="Add" version="opset1">
			<data auto_broadcast="numpy"/>
			<input>
				<port id="0" precision="FP32">
					<dim>1</dim>
					<dim>40</dim>
					<dim>24</dim>
					<dim>24</dim>
				</port>
				<port id="1" precision="FP32">
					<dim>1</dim>
					<dim>40</dim>
					<dim>1</dim>
					<dim>1</dim>
				</port>
			</input>
			<output>
				<port id="2" names="expanded_conv_3/project/BatchNorm/batchnorm/add_1:0" precision="FP32">
					<dim>1</dim>
					<dim>40</dim>
					<dim>24</dim>
					<dim>24</dim>
				</port>
			</output>
		</layer>
		<layer id="137" name="expanded_conv_4/expand/BatchNorm/batchnorm/mul_1_copy" type="Const" version="opset1">
			<data element_type="f32" offset="94480" shape="240, 40, 1, 1" size="38400"/>
			<output>
				<port id="0" names="expanded_conv_4/expand/Conv2D/ReadVariableOp:0" precision="FP32">
					<dim>240</dim>
					<dim>40</dim>
					<dim>1</dim>
					<dim>1</dim>
				</port>
			</output>
		</layer>
		<layer id="138" name="expanded_conv_4/expand/Conv2D" type="Convolution" version="opset1">
			<data auto_pad="same_upper" dilations="1, 1" pads_begin="0, 0" pads_end="0, 0" strides="1, 1"/>
			<input>
				<port id="0" precision="FP32">
					<dim>1</dim>
					<dim>40</dim>
					<dim>24</dim>
					<dim>24</dim>
				</port>
				<port id="1" precision="FP32">
					<dim>240</dim>
					<dim>40</dim>
					<dim>1</dim>
					<dim>1</dim>
				</port>
			</input>
			<output>
				<port id="2" names="expanded_conv_4/expand/BatchNorm/batchnorm/mul_1:0" precision="FP32">
					<dim>1</dim>
					<dim>240</dim>
					<dim>24</dim>
					<dim>24</dim>
				</port>
			</output>
		</layer>
		<layer id="139" name="expanded_conv_4/expand/BatchNorm/batchnorm/sub" type="Const" version="opset1">
			<data element_type="f32" offset="132880" shape="1, 240, 1, 1" size="960"/>
			<output>
				<port id="0" names="expanded_conv_4/expand/BatchNorm/batchnorm/sub:0" precision="FP32">
					<dim>1</dim>
					<dim>240</dim>
					<dim>1</dim>
					<dim>1</dim>
				</port>
			</output>
		</layer>
		<layer id="140" name="expanded_conv_4/expand/BatchNorm/batchnorm/add_1" type="Add" version="opset1">
			<data auto_broadcast="numpy"/>
			<input>
				<port id="0" precision="FP32">
					<dim>1</dim>
					<dim>240</dim>
					<dim>24</dim>
					<dim>24</dim>
				</port>
				<port id="1" precision="FP32">
					<dim>1</dim>
					<dim>240</dim>
					<dim>1</dim>
					<dim>1</dim>
				</port>
			</input>
			<output>
				<port id="2" names="expanded_conv_4/expand/BatchNorm/batchnorm/add_1:0" precision="FP32">
					<dim>1</dim>
					<dim>240</dim>
					<dim>24</dim>
					<dim>24</dim>
				</port>
			</output>
		</layer>
		<layer id="141" name="activation_10/activation_3/mul" type="HSigmoid" version="opset5">
			<input>
				<port id="0" precision="FP32">
					<dim>1</dim>
					<dim>240</dim>
					<dim>24</dim>
					<dim>24</dim>
				</port>
			</input>
			<output>
				<port id="1" names="activation_10/activation_3/mul:0" precision="FP32">
					<dim>1</dim>
					<dim>240</dim>
					<dim>24</dim>
					<dim>24</dim>
				</port>
			</output>
		</layer>
		<layer id="142" name="activation_10/multiply_3/mul" type="Multiply" version="opset1">
			<data auto_broadcast="numpy"/>
			<input>
				<port id="0" precision="FP32">
					<dim>1</dim>
					<dim>240</dim>
					<dim>24</dim>
					<dim>24</dim>
				</port>
				<port id="1" precision="FP32">
					<dim>1</dim>
					<dim>240</dim>
					<dim>24</dim>
					<dim>24</dim>
				</port>
			</input>
			<output>
				<port id="2" names="activation_10/multiply_3/mul:0" precision="FP32">
					<dim>1</dim>
					<dim>240</dim>
					<dim>24</dim>
					<dim>24</dim>
				</port>
			</output>
		</layer>
		<layer id="143" name="expanded_conv_4/depthwise/BatchNorm/batchnorm/mul_1_copy" type="Const" version="opset1">
			<data element_type="f32" offset="133840" shape="240, 1, 1, 5, 5" size="24000"/>
			<output>
				<port id="0" names="expanded_conv_4/depthwise/Conv/depthwise/ReadVariableOp:0" precision="FP32">
					<dim>240</dim>
					<dim>1</dim>
					<dim>1</dim>
					<dim>5</dim>
					<dim>5</dim>
				</port>
			</output>
		</layer>
		<layer id="144" name="expanded_conv_4/depthwise/Conv/depthwise" type="GroupConvolution" version="opset1">
			<data auto_pad="same_upper" dilations="1, 1" pads_begin="2, 2" pads_end="2, 2" strides="1, 1"/>
			<input>
				<port id="0" precision="FP32">
					<dim>1</dim>
					<dim>240</dim>
					<dim>24</dim>
					<dim>24</dim>
				</port>
				<port id="1" precision="FP32">
					<dim>240</dim>
					<dim>1</dim>
					<dim>1</dim>
					<dim>5</dim>
					<dim>5</dim>
				</port>
			</input>
			<output>
				<port id="2" names="expanded_conv_4/depthwise/BatchNorm/batchnorm/mul_1:0" precision="FP32">
					<dim>1</dim>
					<dim>240</dim>
					<dim>24</dim>
					<dim>24</dim>
				</port>
			</output>
		</layer>
		<layer id="145" name="expanded_conv_4/depthwise/BatchNorm/batchnorm/sub" type="Const" version="opset1">
			<data element_type="f32" offset="157840" shape="1, 240, 1, 1" size="960"/>
			<output>
				<port id="0" names="expanded_conv_4/depthwise/BatchNorm/batchnorm/sub:0" precision="FP32">
					<dim>1</dim>
					<dim>240</dim>
					<dim>1</dim>
					<dim>1</dim>
				</port>
			</output>
		</layer>
		<layer id="146" name="expanded_conv_4/depthwise/BatchNorm/batchnorm/add_1" type="Add" version="opset1">
			<data auto_broadcast="numpy"/>
			<input>
				<port id="0" precision="FP32">
					<dim>1</dim>
					<dim>240</dim>
					<dim>24</dim>
					<dim>24</dim>
				</port>
				<port id="1" precision="FP32">
					<dim>1</dim>
					<dim>240</dim>
					<dim>1</dim>
					<dim>1</dim>
				</port>
			</input>
			<output>
				<port id="2" names="expanded_conv_4/depthwise/BatchNorm/batchnorm/add_1:0" precision="FP32">
					<dim>1</dim>
					<dim>240</dim>
					<dim>24</dim>
					<dim>24</dim>
				</port>
			</output>
		</layer>
		<layer id="147" name="activation_11/activation_4/mul" type="HSigmoid" version="opset5">
			<input>
				<port id="0" precision="FP32">
					<dim>1</dim>
					<dim>240</dim>
					<dim>24</dim>
					<dim>24</dim>
				</port>
			</input>
			<output>
				<port id="1" names="activation_11/activation_4/mul:0" precision="FP32">
					<dim>1</dim>
					<dim>240</dim>
					<dim>24</dim>
					<dim>24</dim>
				</port>
			</output>
		</layer>
		<layer id="148" name="activation_11/multiply_4/mul" type="Multiply" version="opset1">
			<data auto_broadcast="numpy"/>
			<input>
				<port id="0" precision="FP32">
					<dim>1</dim>
					<dim>240</dim>
					<dim>24</dim>
					<dim>24</dim>
				</port>
				<port id="1" precision="FP32">
					<dim>1</dim>
					<dim>240</dim>
					<dim>24</dim>
					<dim>24</dim>
				</port>
			</input>
			<output>
				<port id="2" precision="FP32">
					<dim>1</dim>
					<dim>240</dim>
					<dim>24</dim>
					<dim>24</dim>
				</port>
			</output>
		</layer>
		<layer id="149" name="expanded_conv_4/squeeze_excite/AvgPool/MeanGather1696023128" type="Const" version="opset1">
			<data element_type="i64" offset="2500" shape="2" size="16"/>
			<output>
				<port id="0" precision="I64">
					<dim>2</dim>
				</port>
			</output>
		</layer>
		<layer id="150" name="expanded_conv_4/squeeze_excite/AvgPool/Mean" type="ReduceMean" version="opset1">
			<data keep_dims="false"/>
			<input>
				<port id="0" precision="FP32">
					<dim>1</dim>
					<dim>240</dim>
					<dim>24</dim>
					<dim>24</dim>
				</port>
				<port id="1" precision="I64">
					<dim>2</dim>
				</port>
			</input>
			<output>
				<port id="2" names="expanded_conv_4/squeeze_excite/AvgPool/Mean:0" precision="FP32">
					<dim>1</dim>
					<dim>240</dim>
				</port>
			</output>
		</layer>
		<layer id="151" name="reshape_2/Shape" type="ShapeOf" version="opset3">
			<data output_type="i32"/>
			<input>
				<port id="0" precision="FP32">
					<dim>1</dim>
					<dim>240</dim>
				</port>
			</input>
			<output>
				<port id="1" names="reshape_2/Shape:0" precision="I32">
					<dim>2</dim>
				</port>
			</output>
		</layer>
		<layer id="152" name="reshape_2/strided_slice/stack" type="Const" version="opset1">
			<data element_type="i64" offset="2516" shape="1" size="8"/>
			<output>
				<port id="0" names="reshape_2/strided_slice/stack:0" precision="I64">
					<dim>1</dim>
				</port>
			</output>
		</layer>
		<layer id="153" name="reshape_2/strided_slice/stack_1" type="Const" version="opset1">
			<data element_type="i64" offset="2524" shape="1" size="8"/>
			<output>
				<port id="0" names="reshape_2/strided_slice/stack_1:0" precision="I64">
					<dim>1</dim>
				</port>
			</output>
		</layer>
		<layer id="154" name="reshape_2/strided_slice/stack_2" type="Const" version="opset1">
			<data element_type="i64" offset="2524" shape="1" size="8"/>
			<output>
				<port id="0" names="reshape_2/strided_slice/stack_2:0" precision="I64">
					<dim>1</dim>
				</port>
			</output>
		</layer>
		<layer id="155" name="reshape_2/strided_slice" type="StridedSlice" version="opset1">
			<data begin_mask="0" ellipsis_mask="0" end_mask="0" new_axis_mask="0" shrink_axis_mask="1"/>
			<input>
				<port id="0" precision="I32">
					<dim>2</dim>
				</port>
				<port id="1" precision="I64">
					<dim>1</dim>
				</port>
				<port id="2" precision="I64">
					<dim>1</dim>
				</port>
				<port id="3" precision="I64">
					<dim>1</dim>
				</port>
			</input>
			<output>
				<port id="4" names="reshape_2/strided_slice:0" precision="I32"/>
			</output>
		</layer>
		<layer id="156" name="reshape_2/Reshape/shape/Unsqueeze_input_port_1/value" type="Const" version="opset1">
			<data element_type="i64" offset="2516" shape="1" size="8"/>
			<output>
				<port id="0" precision="I64">
					<dim>1</dim>
				</port>
			</output>
		</layer>
		<layer id="157" name="reshape_2/Reshape/shape/Unsqueeze" type="Unsqueeze" version="opset1">
			<input>
				<port id="0" precision="I32"/>
				<port id="1" precision="I64">
					<dim>1</dim>
				</port>
			</input>
			<output>
				<port id="2" precision="I32">
					<dim>1</dim>
				</port>
			</output>
		</layer>
		<layer id="158" name="reshape_2/Reshape/shape/Unsqueeze1495" type="Const" version="opset1">
			<data element_type="i32" offset="2532" shape="1" size="4"/>
			<output>
				<port id="0" precision="I32">
					<dim>1</dim>
				</port>
			</output>
		</layer>
		<layer id="159" name="reshape_2/Reshape/shape/Unsqueeze1497" type="Const" version="opset1">
			<data element_type="i32" offset="2532" shape="1" size="4"/>
			<output>
				<port id="0" precision="I32">
					<dim>1</dim>
				</port>
			</output>
		</layer>
		<layer id="160" name="reshape_2/Reshape/shape/Unsqueeze1499" type="Const" version="opset1">
			<data element_type="i32" offset="158800" shape="1" size="4"/>
			<output>
				<port id="0" precision="I32">
					<dim>1</dim>
				</port>
			</output>
		</layer>
		<layer id="161" name="reshape_2/Reshape/shape" type="Concat" version="opset1">
			<data axis="0"/>
			<input>
				<port id="0" precision="I32">
					<dim>1</dim>
				</port>
				<port id="1" precision="I32">
					<dim>1</dim>
				</port>
				<port id="2" precision="I32">
					<dim>1</dim>
				</port>
				<port id="3" precision="I32">
					<dim>1</dim>
				</port>
			</input>
			<output>
				<port id="4" precision="I32">
					<dim>4</dim>
				</port>
			</output>
		</layer>
		<layer id="162" name="reshape_2/Reshape/Cast_1" type="Convert" version="opset1">
			<data destination_type="i64"/>
			<input>
				<port id="0" precision="I32">
					<dim>4</dim>
				</port>
			</input>
			<output>
				<port id="1" names="reshape_2/Reshape/shape:0" precision="I64">
					<dim>4</dim>
				</port>
			</output>
		</layer>
		<layer id="163" name="reshape_2/Reshape" type="Reshape" version="opset1">
			<data special_zero="false"/>
			<input>
				<port id="0" precision="FP32">
					<dim>1</dim>
					<dim>240</dim>
				</port>
				<port id="1" precision="I64">
					<dim>4</dim>
				</port>
			</input>
			<output>
				<port id="2" precision="FP32">
					<dim>1</dim>
					<dim>1</dim>
					<dim>1</dim>
					<dim>240</dim>
				</port>
			</output>
		</layer>
		<layer id="164" name="reshape_2/Reshape/Transpose/value1405522966" type="Const" version="opset1">
			<data element_type="i64" offset="2540" shape="4" size="32"/>
			<output>
				<port id="0" precision="I64">
					<dim>4</dim>
				</port>
			</output>
		</layer>
		<layer id="165" name="reshape_2/Reshape/Transpose" type="Transpose" version="opset1">
			<input>
				<port id="0" precision="FP32">
					<dim>1</dim>
					<dim>1</dim>
					<dim>1</dim>
					<dim>240</dim>
				</port>
				<port id="1" precision="I64">
					<dim>4</dim>
				</port>
			</input>
			<output>
				<port id="2" names="reshape_2/Reshape:0" precision="FP32">
					<dim>1</dim>
					<dim>240</dim>
					<dim>1</dim>
					<dim>1</dim>
				</port>
			</output>
		</layer>
		<layer id="166" name="expanded_conv_4/squeeze_excite/Conv/Conv2D/ReadVariableOp" type="Const" version="opset1">
			<data element_type="f32" offset="158804" shape="64, 240, 1, 1" size="61440"/>
			<output>
				<port id="0" names="expanded_conv_4/squeeze_excite/Conv/Conv2D/ReadVariableOp:0" precision="FP32">
					<dim>64</dim>
					<dim>240</dim>
					<dim>1</dim>
					<dim>1</dim>
				</port>
			</output>
		</layer>
		<layer id="167" name="expanded_conv_4/squeeze_excite/Conv/Conv2D" type="Convolution" version="opset1">
			<data auto_pad="same_upper" dilations="1, 1" pads_begin="0, 0" pads_end="0, 0" strides="1, 1"/>
			<input>
				<port id="0" precision="FP32">
					<dim>1</dim>
					<dim>240</dim>
					<dim>1</dim>
					<dim>1</dim>
				</port>
				<port id="1" precision="FP32">
					<dim>64</dim>
					<dim>240</dim>
					<dim>1</dim>
					<dim>1</dim>
				</port>
			</input>
			<output>
				<port id="2" names="expanded_conv_4/squeeze_excite/Conv/Conv2D:0" precision="FP32">
					<dim>1</dim>
					<dim>64</dim>
					<dim>1</dim>
					<dim>1</dim>
				</port>
			</output>
		</layer>
		<layer id="168" name="expanded_conv_4/squeeze_excite/Conv/BiasAdd/ReadVariableOp" type="Const" version="opset1">
			<data element_type="f32" offset="220244" shape="1, 64, 1, 1" size="256"/>
			<output>
				<port id="0" names="expanded_conv_4/squeeze_excite/Conv/BiasAdd/ReadVariableOp:0" precision="FP32">
					<dim>1</dim>
					<dim>64</dim>
					<dim>1</dim>
					<dim>1</dim>
				</port>
			</output>
		</layer>
		<layer id="169" name="expanded_conv_4/squeeze_excite/Conv/BiasAdd/Add" type="Add" version="opset1">
			<data auto_broadcast="numpy"/>
			<input>
				<port id="0" precision="FP32">
					<dim>1</dim>
					<dim>64</dim>
					<dim>1</dim>
					<dim>1</dim>
				</port>
				<port id="1" precision="FP32">
					<dim>1</dim>
					<dim>64</dim>
					<dim>1</dim>
					<dim>1</dim>
				</port>
			</input>
			<output>
				<port id="2" names="expanded_conv_4/squeeze_excite/Conv/BiasAdd:0" precision="FP32">
					<dim>1</dim>
					<dim>64</dim>
					<dim>1</dim>
					<dim>1</dim>
				</port>
			</output>
		</layer>
		<layer id="170" name="expanded_conv_4/squeeze_excite/Relu/Relu" type="ReLU" version="opset1">
			<input>
				<port id="0" precision="FP32">
					<dim>1</dim>
					<dim>64</dim>
					<dim>1</dim>
					<dim>1</dim>
				</port>
			</input>
			<output>
				<port id="1" names="expanded_conv_4/squeeze_excite/Relu/Relu:0" precision="FP32">
					<dim>1</dim>
					<dim>64</dim>
					<dim>1</dim>
					<dim>1</dim>
				</port>
			</output>
		</layer>
		<layer id="171" name="expanded_conv_4/squeeze_excite/Conv_1/Conv2D/ReadVariableOp" type="Const" version="opset1">
			<data element_type="f32" offset="220500" shape="240, 64, 1, 1" size="61440"/>
			<output>
				<port id="0" names="expanded_conv_4/squeeze_excite/Conv_1/Conv2D/ReadVariableOp:0" precision="FP32">
					<dim>240</dim>
					<dim>64</dim>
					<dim>1</dim>
					<dim>1</dim>
				</port>
			</output>
		</layer>
		<layer id="172" name="expanded_conv_4/squeeze_excite/Conv_1/Conv2D" type="Convolution" version="opset1">
			<data auto_pad="same_upper" dilations="1, 1" pads_begin="0, 0" pads_end="0, 0" strides="1, 1"/>
			<input>
				<port id="0" precision="FP32">
					<dim>1</dim>
					<dim>64</dim>
					<dim>1</dim>
					<dim>1</dim>
				</port>
				<port id="1" precision="FP32">
					<dim>240</dim>
					<dim>64</dim>
					<dim>1</dim>
					<dim>1</dim>
				</port>
			</input>
			<output>
				<port id="2" names="expanded_conv_4/squeeze_excite/Conv_1/Conv2D:0" precision="FP32">
					<dim>1</dim>
					<dim>240</dim>
					<dim>1</dim>
					<dim>1</dim>
				</port>
			</output>
		</layer>
		<layer id="173" name="expanded_conv_4/squeeze_excite/Conv_1/BiasAdd/ReadVariableOp" type="Const" version="opset1">
			<data element_type="f32" offset="281940" shape="1, 240, 1, 1" size="960"/>
			<output>
				<port id="0" names="expanded_conv_4/squeeze_excite/Conv_1/BiasAdd/ReadVariableOp:0" precision="FP32">
					<dim>1</dim>
					<dim>240</dim>
					<dim>1</dim>
					<dim>1</dim>
				</port>
			</output>
		</layer>
		<layer id="174" name="expanded_conv_4/squeeze_excite/Conv_1/BiasAdd/Add" type="Add" version="opset1">
			<data auto_broadcast="numpy"/>
			<input>
				<port id="0" precision="FP32">
					<dim>1</dim>
					<dim>240</dim>
					<dim>1</dim>
					<dim>1</dim>
				</port>
				<port id="1" precision="FP32">
					<dim>1</dim>
					<dim>240</dim>
					<dim>1</dim>
					<dim>1</dim>
				</port>
			</input>
			<output>
				<port id="2" names="expanded_conv_4/squeeze_excite/Conv_1/BiasAdd:0" precision="FP32">
					<dim>1</dim>
					<dim>240</dim>
					<dim>1</dim>
					<dim>1</dim>
				</port>
			</output>
		</layer>
		<layer id="175" name="activation_12/mul" type="HSigmoid" version="opset5">
			<input>
				<port id="0" precision="FP32">
					<dim>1</dim>
					<dim>240</dim>
					<dim>1</dim>
					<dim>1</dim>
				</port>
			</input>
			<output>
				<port id="1" names="activation_12/mul:0" precision="FP32">
					<dim>1</dim>
					<dim>240</dim>
					<dim>1</dim>
					<dim>1</dim>
				</port>
			</output>
		</layer>
		<layer id="176" name="expanded_conv_4/squeeze_excite/Mul/mul" type="Multiply" version="opset1">
			<data auto_broadcast="numpy"/>
			<input>
				<port id="0" precision="FP32">
					<dim>1</dim>
					<dim>240</dim>
					<dim>24</dim>
					<dim>24</dim>
				</port>
				<port id="1" precision="FP32">
					<dim>1</dim>
					<dim>240</dim>
					<dim>1</dim>
					<dim>1</dim>
				</port>
			</input>
			<output>
				<port id="2" names="expanded_conv_4/squeeze_excite/Mul/mul:0" precision="FP32">
					<dim>1</dim>
					<dim>240</dim>
					<dim>24</dim>
					<dim>24</dim>
				</port>
			</output>
		</layer>
		<layer id="177" name="expanded_conv_4/project/BatchNorm/batchnorm/mul_1_copy" type="Const" version="opset1">
			<data element_type="f32" offset="282900" shape="40, 240, 1, 1" size="38400"/>
			<output>
				<port id="0" names="expanded_conv_4/project/Conv2D/ReadVariableOp:0" precision="FP32">
					<dim>40</dim>
					<dim>240</dim>
					<dim>1</dim>
					<dim>1</dim>
				</port>
			</output>
		</layer>
		<layer id="178" name="expanded_conv_4/project/Conv2D" type="Convolution" version="opset1">
			<data auto_pad="same_upper" dilations="1, 1" pads_begin="0, 0" pads_end="0, 0" strides="1, 1"/>
			<input>
				<port id="0" precision="FP32">
					<dim>1</dim>
					<dim>240</dim>
					<dim>24</dim>
					<dim>24</dim>
				</port>
				<port id="1" precision="FP32">
					<dim>40</dim>
					<dim>240</dim>
					<dim>1</dim>
					<dim>1</dim>
				</port>
			</input>
			<output>
				<port id="2" names="expanded_conv_4/project/BatchNorm/batchnorm/mul_1:0" precision="FP32">
					<dim>1</dim>
					<dim>40</dim>
					<dim>24</dim>
					<dim>24</dim>
				</port>
			</output>
		</layer>
		<layer id="179" name="expanded_conv_4/project/BatchNorm/batchnorm/sub" type="Const" version="opset1">
			<data element_type="f32" offset="321300" shape="1, 40, 1, 1" size="160"/>
			<output>
				<port id="0" names="expanded_conv_4/project/BatchNorm/batchnorm/sub:0" precision="FP32">
					<dim>1</dim>
					<dim>40</dim>
					<dim>1</dim>
					<dim>1</dim>
				</port>
			</output>
		</layer>
		<layer id="180" name="expanded_conv_4/project/BatchNorm/batchnorm/add_1" type="Add" version="opset1">
			<data auto_broadcast="numpy"/>
			<input>
				<port id="0" precision="FP32">
					<dim>1</dim>
					<dim>40</dim>
					<dim>24</dim>
					<dim>24</dim>
				</port>
				<port id="1" precision="FP32">
					<dim>1</dim>
					<dim>40</dim>
					<dim>1</dim>
					<dim>1</dim>
				</port>
			</input>
			<output>
				<port id="2" names="expanded_conv_4/project/BatchNorm/batchnorm/add_1:0" precision="FP32">
					<dim>1</dim>
					<dim>40</dim>
					<dim>24</dim>
					<dim>24</dim>
				</port>
			</output>
		</layer>
		<layer id="181" name="expanded_conv_4/Add/add" type="Add" version="opset1">
			<data auto_broadcast="numpy"/>
			<input>
				<port id="0" precision="FP32">
					<dim>1</dim>
					<dim>40</dim>
					<dim>24</dim>
					<dim>24</dim>
				</port>
				<port id="1" precision="FP32">
					<dim>1</dim>
					<dim>40</dim>
					<dim>24</dim>
					<dim>24</dim>
				</port>
			</input>
			<output>
				<port id="2" names="expanded_conv_4/Add/add:0" precision="FP32">
					<dim>1</dim>
					<dim>40</dim>
					<dim>24</dim>
					<dim>24</dim>
				</port>
			</output>
		</layer>
		<layer id="182" name="expanded_conv_5/expand/BatchNorm/batchnorm/mul_1_copy" type="Const" version="opset1">
			<data element_type="f32" offset="321460" shape="240, 40, 1, 1" size="38400"/>
			<output>
				<port id="0" names="expanded_conv_5/expand/Conv2D/ReadVariableOp:0" precision="FP32">
					<dim>240</dim>
					<dim>40</dim>
					<dim>1</dim>
					<dim>1</dim>
				</port>
			</output>
		</layer>
		<layer id="183" name="expanded_conv_5/expand/Conv2D" type="Convolution" version="opset1">
			<data auto_pad="same_upper" dilations="1, 1" pads_begin="0, 0" pads_end="0, 0" strides="1, 1"/>
			<input>
				<port id="0" precision="FP32">
					<dim>1</dim>
					<dim>40</dim>
					<dim>24</dim>
					<dim>24</dim>
				</port>
				<port id="1" precision="FP32">
					<dim>240</dim>
					<dim>40</dim>
					<dim>1</dim>
					<dim>1</dim>
				</port>
			</input>
			<output>
				<port id="2" names="expanded_conv_5/expand/BatchNorm/batchnorm/mul_1:0" precision="FP32">
					<dim>1</dim>
					<dim>240</dim>
					<dim>24</dim>
					<dim>24</dim>
				</port>
			</output>
		</layer>
		<layer id="184" name="expanded_conv_5/expand/BatchNorm/batchnorm/sub" type="Const" version="opset1">
			<data element_type="f32" offset="359860" shape="1, 240, 1, 1" size="960"/>
			<output>
				<port id="0" names="expanded_conv_5/expand/BatchNorm/batchnorm/sub:0" precision="FP32">
					<dim>1</dim>
					<dim>240</dim>
					<dim>1</dim>
					<dim>1</dim>
				</port>
			</output>
		</layer>
		<layer id="185" name="expanded_conv_5/expand/BatchNorm/batchnorm/add_1" type="Add" version="opset1">
			<data auto_broadcast="numpy"/>
			<input>
				<port id="0" precision="FP32">
					<dim>1</dim>
					<dim>240</dim>
					<dim>24</dim>
					<dim>24</dim>
				</port>
				<port id="1" precision="FP32">
					<dim>1</dim>
					<dim>240</dim>
					<dim>1</dim>
					<dim>1</dim>
				</port>
			</input>
			<output>
				<port id="2" names="expanded_conv_5/expand/BatchNorm/batchnorm/add_1:0" precision="FP32">
					<dim>1</dim>
					<dim>240</dim>
					<dim>24</dim>
					<dim>24</dim>
				</port>
			</output>
		</layer>
		<layer id="186" name="activation_13/activation_5/mul" type="HSigmoid" version="opset5">
			<input>
				<port id="0" precision="FP32">
					<dim>1</dim>
					<dim>240</dim>
					<dim>24</dim>
					<dim>24</dim>
				</port>
			</input>
			<output>
				<port id="1" names="activation_13/activation_5/mul:0" precision="FP32">
					<dim>1</dim>
					<dim>240</dim>
					<dim>24</dim>
					<dim>24</dim>
				</port>
			</output>
		</layer>
		<layer id="187" name="activation_13/multiply_5/mul" type="Multiply" version="opset1">
			<data auto_broadcast="numpy"/>
			<input>
				<port id="0" precision="FP32">
					<dim>1</dim>
					<dim>240</dim>
					<dim>24</dim>
					<dim>24</dim>
				</port>
				<port id="1" precision="FP32">
					<dim>1</dim>
					<dim>240</dim>
					<dim>24</dim>
					<dim>24</dim>
				</port>
			</input>
			<output>
				<port id="2" names="activation_13/multiply_5/mul:0" precision="FP32">
					<dim>1</dim>
					<dim>240</dim>
					<dim>24</dim>
					<dim>24</dim>
				</port>
			</output>
		</layer>
		<layer id="188" name="expanded_conv_5/depthwise/BatchNorm/batchnorm/mul_1_copy" type="Const" version="opset1">
			<data element_type="f32" offset="360820" shape="240, 1, 1, 5, 5" size="24000"/>
			<output>
				<port id="0" names="expanded_conv_5/depthwise/Conv/depthwise/ReadVariableOp:0" precision="FP32">
					<dim>240</dim>
					<dim>1</dim>
					<dim>1</dim>
					<dim>5</dim>
					<dim>5</dim>
				</port>
			</output>
		</layer>
		<layer id="189" name="expanded_conv_5/depthwise/Conv/depthwise" type="GroupConvolution" version="opset1">
			<data auto_pad="same_upper" dilations="1, 1" pads_begin="2, 2" pads_end="2, 2" strides="1, 1"/>
			<input>
				<port id="0" precision="FP32">
					<dim>1</dim>
					<dim>240</dim>
					<dim>24</dim>
					<dim>24</dim>
				</port>
				<port id="1" precision="FP32">
					<dim>240</dim>
					<dim>1</dim>
					<dim>1</dim>
					<dim>5</dim>
					<dim>5</dim>
				</port>
			</input>
			<output>
				<port id="2" names="expanded_conv_5/depthwise/BatchNorm/batchnorm/mul_1:0" precision="FP32">
					<dim>1</dim>
					<dim>240</dim>
					<dim>24</dim>
					<dim>24</dim>
				</port>
			</output>
		</layer>
		<layer id="190" name="expanded_conv_5/depthwise/BatchNorm/batchnorm/sub" type="Const" version="opset1">
			<data element_type="f32" offset="384820" shape="1, 240, 1, 1" size="960"/>
			<output>
				<port id="0" names="expanded_conv_5/depthwise/BatchNorm/batchnorm/sub:0" precision="FP32">
					<dim>1</dim>
					<dim>240</dim>
					<dim>1</dim>
					<dim>1</dim>
				</port>
			</output>
		</layer>
		<layer id="191" name="expanded_conv_5/depthwise/BatchNorm/batchnorm/add_1" type="Add" version="opset1">
			<data auto_broadcast="numpy"/>
			<input>
				<port id="0" precision="FP32">
					<dim>1</dim>
					<dim>240</dim>
					<dim>24</dim>
					<dim>24</dim>
				</port>
				<port id="1" precision="FP32">
					<dim>1</dim>
					<dim>240</dim>
					<dim>1</dim>
					<dim>1</dim>
				</port>
			</input>
			<output>
				<port id="2" names="expanded_conv_5/depthwise/BatchNorm/batchnorm/add_1:0" precision="FP32">
					<dim>1</dim>
					<dim>240</dim>
					<dim>24</dim>
					<dim>24</dim>
				</port>
			</output>
		</layer>
		<layer id="192" name="activation_14/activation_6/mul" type="HSigmoid" version="opset5">
			<input>
				<port id="0" precision="FP32">
					<dim>1</dim>
					<dim>240</dim>
					<dim>24</dim>
					<dim>24</dim>
				</port>
			</input>
			<output>
				<port id="1" names="activation_14/activation_6/mul:0" precision="FP32">
					<dim>1</dim>
					<dim>240</dim>
					<dim>24</dim>
					<dim>24</dim>
				</port>
			</output>
		</layer>
		<layer id="193" name="activation_14/multiply_6/mul" type="Multiply" version="opset1">
			<data auto_broadcast="numpy"/>
			<input>
				<port id="0" precision="FP32">
					<dim>1</dim>
					<dim>240</dim>
					<dim>24</dim>
					<dim>24</dim>
				</port>
				<port id="1" precision="FP32">
					<dim>1</dim>
					<dim>240</dim>
					<dim>24</dim>
					<dim>24</dim>
				</port>
			</input>
			<output>
				<port id="2" precision="FP32">
					<dim>1</dim>
					<dim>240</dim>
					<dim>24</dim>
					<dim>24</dim>
				</port>
			</output>
		</layer>
		<layer id="194" name="expanded_conv_5/squeeze_excite/AvgPool/MeanGather1698423176" type="Const" version="opset1">
			<data element_type="i64" offset="2500" shape="2" size="16"/>
			<output>
				<port id="0" precision="I64">
					<dim>2</dim>
				</port>
			</output>
		</layer>
		<layer id="195" name="expanded_conv_5/squeeze_excite/AvgPool/Mean" type="ReduceMean" version="opset1">
			<data keep_dims="false"/>
			<input>
				<port id="0" precision="FP32">
					<dim>1</dim>
					<dim>240</dim>
					<dim>24</dim>
					<dim>24</dim>
				</port>
				<port id="1" precision="I64">
					<dim>2</dim>
				</port>
			</input>
			<output>
				<port id="2" names="expanded_conv_5/squeeze_excite/AvgPool/Mean:0" precision="FP32">
					<dim>1</dim>
					<dim>240</dim>
				</port>
			</output>
		</layer>
		<layer id="196" name="reshape_3/Shape" type="ShapeOf" version="opset3">
			<data output_type="i32"/>
			<input>
				<port id="0" precision="FP32">
					<dim>1</dim>
					<dim>240</dim>
				</port>
			</input>
			<output>
				<port id="1" names="reshape_3/Shape:0" precision="I32">
					<dim>2</dim>
				</port>
			</output>
		</layer>
		<layer id="197" name="reshape_3/strided_slice/stack" type="Const" version="opset1">
			<data element_type="i64" offset="2516" shape="1" size="8"/>
			<output>
				<port id="0" names="reshape_3/strided_slice/stack:0" precision="I64">
					<dim>1</dim>
				</port>
			</output>
		</layer>
		<layer id="198" name="reshape_3/strided_slice/stack_1" type="Const" version="opset1">
			<data element_type="i64" offset="2524" shape="1" size="8"/>
			<output>
				<port id="0" names="reshape_3/strided_slice/stack_1:0" precision="I64">
					<dim>1</dim>
				</port>
			</output>
		</layer>
		<layer id="199" name="reshape_3/strided_slice/stack_2" type="Const" version="opset1">
			<data element_type="i64" offset="2524" shape="1" size="8"/>
			<output>
				<port id="0" names="reshape_3/strided_slice/stack_2:0" precision="I64">
					<dim>1</dim>
				</port>
			</output>
		</layer>
		<layer id="200" name="reshape_3/strided_slice" type="StridedSlice" version="opset1">
			<data begin_mask="0" ellipsis_mask="0" end_mask="0" new_axis_mask="0" shrink_axis_mask="1"/>
			<input>
				<port id="0" precision="I32">
					<dim>2</dim>
				</port>
				<port id="1" precision="I64">
					<dim>1</dim>
				</port>
				<port id="2" precision="I64">
					<dim>1</dim>
				</port>
				<port id="3" precision="I64">
					<dim>1</dim>
				</port>
			</input>
			<output>
				<port id="4" names="reshape_3/strided_slice:0" precision="I32"/>
			</output>
		</layer>
		<layer id="201" name="reshape_3/Reshape/shape/Unsqueeze_input_port_1/value" type="Const" version="opset1">
			<data element_type="i64" offset="2516" shape="1" size="8"/>
			<output>
				<port id="0" precision="I64">
					<dim>1</dim>
				</port>
			</output>
		</layer>
		<layer id="202" name="reshape_3/Reshape/shape/Unsqueeze" type="Unsqueeze" version="opset1">
			<input>
				<port id="0" precision="I32"/>
				<port id="1" precision="I64">
					<dim>1</dim>
				</port>
			</input>
			<output>
				<port id="2" precision="I32">
					<dim>1</dim>
				</port>
			</output>
		</layer>
		<layer id="203" name="reshape_3/Reshape/shape/Unsqueeze1486" type="Const" version="opset1">
			<data element_type="i32" offset="2532" shape="1" size="4"/>
			<output>
				<port id="0" precision="I32">
					<dim>1</dim>
				</port>
			</output>
		</layer>
		<layer id="204" name="reshape_3/Reshape/shape/Unsqueeze1488" type="Const" version="opset1">
			<data element_type="i32" offset="2532" shape="1" size="4"/>
			<output>
				<port id="0" precision="I32">
					<dim>1</dim>
				</port>
			</output>
		</layer>
		<layer id="205" name="reshape_3/Reshape/shape/Unsqueeze1490" type="Const" version="opset1">
			<data element_type="i32" offset="158800" shape="1" size="4"/>
			<output>
				<port id="0" precision="I32">
					<dim>1</dim>
				</port>
			</output>
		</layer>
		<layer id="206" name="reshape_3/Reshape/shape" type="Concat" version="opset1">
			<data axis="0"/>
			<input>
				<port id="0" precision="I32">
					<dim>1</dim>
				</port>
				<port id="1" precision="I32">
					<dim>1</dim>
				</port>
				<port id="2" precision="I32">
					<dim>1</dim>
				</port>
				<port id="3" precision="I32">
					<dim>1</dim>
				</port>
			</input>
			<output>
				<port id="4" precision="I32">
					<dim>4</dim>
				</port>
			</output>
		</layer>
		<layer id="207" name="reshape_3/Reshape/Cast_1" type="Convert" version="opset1">
			<data destination_type="i64"/>
			<input>
				<port id="0" precision="I32">
					<dim>4</dim>
				</port>
			</input>
			<output>
				<port id="1" names="reshape_3/Reshape/shape:0" precision="I64">
					<dim>4</dim>
				</port>
			</output>
		</layer>
		<layer id="208" name="reshape_3/Reshape" type="Reshape" version="opset1">
			<data special_zero="false"/>
			<input>
				<port id="0" precision="FP32">
					<dim>1</dim>
					<dim>240</dim>
				</port>
				<port id="1" precision="I64">
					<dim>4</dim>
				</port>
			</input>
			<output>
				<port id="2" precision="FP32">
					<dim>1</dim>
					<dim>1</dim>
					<dim>1</dim>
					<dim>240</dim>
				</port>
			</output>
		</layer>
		<layer id="209" name="reshape_3/Reshape/Transpose/value1405922951" type="Const" version="opset1">
			<data element_type="i64" offset="2540" shape="4" size="32"/>
			<output>
				<port id="0" precision="I64">
					<dim>4</dim>
				</port>
			</output>
		</layer>
		<layer id="210" name="reshape_3/Reshape/Transpose" type="Transpose" version="opset1">
			<input>
				<port id="0" precision="FP32">
					<dim>1</dim>
					<dim>1</dim>
					<dim>1</dim>
					<dim>240</dim>
				</port>
				<port id="1" precision="I64">
					<dim>4</dim>
				</port>
			</input>
			<output>
				<port id="2" names="reshape_3/Reshape:0" precision="FP32">
					<dim>1</dim>
					<dim>240</dim>
					<dim>1</dim>
					<dim>1</dim>
				</port>
			</output>
		</layer>
		<layer id="211" name="expanded_conv_5/squeeze_excite/Conv/Conv2D/ReadVariableOp" type="Const" version="opset1">
			<data element_type="f32" offset="385780" shape="64, 240, 1, 1" size="61440"/>
			<output>
				<port id="0" names="expanded_conv_5/squeeze_excite/Conv/Conv2D/ReadVariableOp:0" precision="FP32">
					<dim>64</dim>
					<dim>240</dim>
					<dim>1</dim>
					<dim>1</dim>
				</port>
			</output>
		</layer>
		<layer id="212" name="expanded_conv_5/squeeze_excite/Conv/Conv2D" type="Convolution" version="opset1">
			<data auto_pad="same_upper" dilations="1, 1" pads_begin="0, 0" pads_end="0, 0" strides="1, 1"/>
			<input>
				<port id="0" precision="FP32">
					<dim>1</dim>
					<dim>240</dim>
					<dim>1</dim>
					<dim>1</dim>
				</port>
				<port id="1" precision="FP32">
					<dim>64</dim>
					<dim>240</dim>
					<dim>1</dim>
					<dim>1</dim>
				</port>
			</input>
			<output>
				<port id="2" names="expanded_conv_5/squeeze_excite/Conv/Conv2D:0" precision="FP32">
					<dim>1</dim>
					<dim>64</dim>
					<dim>1</dim>
					<dim>1</dim>
				</port>
			</output>
		</layer>
		<layer id="213" name="expanded_conv_5/squeeze_excite/Conv/BiasAdd/ReadVariableOp" type="Const" version="opset1">
			<data element_type="f32" offset="447220" shape="1, 64, 1, 1" size="256"/>
			<output>
				<port id="0" names="expanded_conv_5/squeeze_excite/Conv/BiasAdd/ReadVariableOp:0" precision="FP32">
					<dim>1</dim>
					<dim>64</dim>
					<dim>1</dim>
					<dim>1</dim>
				</port>
			</output>
		</layer>
		<layer id="214" name="expanded_conv_5/squeeze_excite/Conv/BiasAdd/Add" type="Add" version="opset1">
			<data auto_broadcast="numpy"/>
			<input>
				<port id="0" precision="FP32">
					<dim>1</dim>
					<dim>64</dim>
					<dim>1</dim>
					<dim>1</dim>
				</port>
				<port id="1" precision="FP32">
					<dim>1</dim>
					<dim>64</dim>
					<dim>1</dim>
					<dim>1</dim>
				</port>
			</input>
			<output>
				<port id="2" names="expanded_conv_5/squeeze_excite/Conv/BiasAdd:0" precision="FP32">
					<dim>1</dim>
					<dim>64</dim>
					<dim>1</dim>
					<dim>1</dim>
				</port>
			</output>
		</layer>
		<layer id="215" name="expanded_conv_5/squeeze_excite/Relu/Relu" type="ReLU" version="opset1">
			<input>
				<port id="0" precision="FP32">
					<dim>1</dim>
					<dim>64</dim>
					<dim>1</dim>
					<dim>1</dim>
				</port>
			</input>
			<output>
				<port id="1" names="expanded_conv_5/squeeze_excite/Relu/Relu:0" precision="FP32">
					<dim>1</dim>
					<dim>64</dim>
					<dim>1</dim>
					<dim>1</dim>
				</port>
			</output>
		</layer>
		<layer id="216" name="expanded_conv_5/squeeze_excite/Conv_1/Conv2D/ReadVariableOp" type="Const" version="opset1">
			<data element_type="f32" offset="447476" shape="240, 64, 1, 1" size="61440"/>
			<output>
				<port id="0" names="expanded_conv_5/squeeze_excite/Conv_1/Conv2D/ReadVariableOp:0" precision="FP32">
					<dim>240</dim>
					<dim>64</dim>
					<dim>1</dim>
					<dim>1</dim>
				</port>
			</output>
		</layer>
		<layer id="217" name="expanded_conv_5/squeeze_excite/Conv_1/Conv2D" type="Convolution" version="opset1">
			<data auto_pad="same_upper" dilations="1, 1" pads_begin="0, 0" pads_end="0, 0" strides="1, 1"/>
			<input>
				<port id="0" precision="FP32">
					<dim>1</dim>
					<dim>64</dim>
					<dim>1</dim>
					<dim>1</dim>
				</port>
				<port id="1" precision="FP32">
					<dim>240</dim>
					<dim>64</dim>
					<dim>1</dim>
					<dim>1</dim>
				</port>
			</input>
			<output>
				<port id="2" names="expanded_conv_5/squeeze_excite/Conv_1/Conv2D:0" precision="FP32">
					<dim>1</dim>
					<dim>240</dim>
					<dim>1</dim>
					<dim>1</dim>
				</port>
			</output>
		</layer>
		<layer id="218" name="expanded_conv_5/squeeze_excite/Conv_1/BiasAdd/ReadVariableOp" type="Const" version="opset1">
			<data element_type="f32" offset="508916" shape="1, 240, 1, 1" size="960"/>
			<output>
				<port id="0" names="expanded_conv_5/squeeze_excite/Conv_1/BiasAdd/ReadVariableOp:0" precision="FP32">
					<dim>1</dim>
					<dim>240</dim>
					<dim>1</dim>
					<dim>1</dim>
				</port>
			</output>
		</layer>
		<layer id="219" name="expanded_conv_5/squeeze_excite/Conv_1/BiasAdd/Add" type="Add" version="opset1">
			<data auto_broadcast="numpy"/>
			<input>
				<port id="0" precision="FP32">
					<dim>1</dim>
					<dim>240</dim>
					<dim>1</dim>
					<dim>1</dim>
				</port>
				<port id="1" precision="FP32">
					<dim>1</dim>
					<dim>240</dim>
					<dim>1</dim>
					<dim>1</dim>
				</port>
			</input>
			<output>
				<port id="2" names="expanded_conv_5/squeeze_excite/Conv_1/BiasAdd:0" precision="FP32">
					<dim>1</dim>
					<dim>240</dim>
					<dim>1</dim>
					<dim>1</dim>
				</port>
			</output>
		</layer>
		<layer id="220" name="activation_15/mul" type="HSigmoid" version="opset5">
			<input>
				<port id="0" precision="FP32">
					<dim>1</dim>
					<dim>240</dim>
					<dim>1</dim>
					<dim>1</dim>
				</port>
			</input>
			<output>
				<port id="1" names="activation_15/mul:0" precision="FP32">
					<dim>1</dim>
					<dim>240</dim>
					<dim>1</dim>
					<dim>1</dim>
				</port>
			</output>
		</layer>
		<layer id="221" name="expanded_conv_5/squeeze_excite/Mul/mul" type="Multiply" version="opset1">
			<data auto_broadcast="numpy"/>
			<input>
				<port id="0" precision="FP32">
					<dim>1</dim>
					<dim>240</dim>
					<dim>24</dim>
					<dim>24</dim>
				</port>
				<port id="1" precision="FP32">
					<dim>1</dim>
					<dim>240</dim>
					<dim>1</dim>
					<dim>1</dim>
				</port>
			</input>
			<output>
				<port id="2" names="expanded_conv_5/squeeze_excite/Mul/mul:0" precision="FP32">
					<dim>1</dim>
					<dim>240</dim>
					<dim>24</dim>
					<dim>24</dim>
				</port>
			</output>
		</layer>
		<layer id="222" name="expanded_conv_5/project/BatchNorm/batchnorm/mul_1_copy" type="Const" version="opset1">
			<data element_type="f32" offset="509876" shape="40, 240, 1, 1" size="38400"/>
			<output>
				<port id="0" names="expanded_conv_5/project/Conv2D/ReadVariableOp:0" precision="FP32">
					<dim>40</dim>
					<dim>240</dim>
					<dim>1</dim>
					<dim>1</dim>
				</port>
			</output>
		</layer>
		<layer id="223" name="expanded_conv_5/project/Conv2D" type="Convolution" version="opset1">
			<data auto_pad="same_upper" dilations="1, 1" pads_begin="0, 0" pads_end="0, 0" strides="1, 1"/>
			<input>
				<port id="0" precision="FP32">
					<dim>1</dim>
					<dim>240</dim>
					<dim>24</dim>
					<dim>24</dim>
				</port>
				<port id="1" precision="FP32">
					<dim>40</dim>
					<dim>240</dim>
					<dim>1</dim>
					<dim>1</dim>
				</port>
			</input>
			<output>
				<port id="2" names="expanded_conv_5/project/BatchNorm/batchnorm/mul_1:0" precision="FP32">
					<dim>1</dim>
					<dim>40</dim>
					<dim>24</dim>
					<dim>24</dim>
				</port>
			</output>
		</layer>
		<layer id="224" name="expanded_conv_5/project/BatchNorm/batchnorm/sub" type="Const" version="opset1">
			<data element_type="f32" offset="548276" shape="1, 40, 1, 1" size="160"/>
			<output>
				<port id="0" names="expanded_conv_5/project/BatchNorm/batchnorm/sub:0" precision="FP32">
					<dim>1</dim>
					<dim>40</dim>
					<dim>1</dim>
					<dim>1</dim>
				</port>
			</output>
		</layer>
		<layer id="225" name="expanded_conv_5/project/BatchNorm/batchnorm/add_1" type="Add" version="opset1">
			<data auto_broadcast="numpy"/>
			<input>
				<port id="0" precision="FP32">
					<dim>1</dim>
					<dim>40</dim>
					<dim>24</dim>
					<dim>24</dim>
				</port>
				<port id="1" precision="FP32">
					<dim>1</dim>
					<dim>40</dim>
					<dim>1</dim>
					<dim>1</dim>
				</port>
			</input>
			<output>
				<port id="2" names="expanded_conv_5/project/BatchNorm/batchnorm/add_1:0" precision="FP32">
					<dim>1</dim>
					<dim>40</dim>
					<dim>24</dim>
					<dim>24</dim>
				</port>
			</output>
		</layer>
		<layer id="226" name="expanded_conv_5/Add/add" type="Add" version="opset1">
			<data auto_broadcast="numpy"/>
			<input>
				<port id="0" precision="FP32">
					<dim>1</dim>
					<dim>40</dim>
					<dim>24</dim>
					<dim>24</dim>
				</port>
				<port id="1" precision="FP32">
					<dim>1</dim>
					<dim>40</dim>
					<dim>24</dim>
					<dim>24</dim>
				</port>
			</input>
			<output>
				<port id="2" names="expanded_conv_5/Add/add:0" precision="FP32">
					<dim>1</dim>
					<dim>40</dim>
					<dim>24</dim>
					<dim>24</dim>
				</port>
			</output>
		</layer>
		<layer id="227" name="expanded_conv_6/expand/BatchNorm/batchnorm/mul_1_copy" type="Const" version="opset1">
			<data element_type="f32" offset="548436" shape="120, 40, 1, 1" size="19200"/>
			<output>
				<port id="0" names="expanded_conv_6/expand/Conv2D/ReadVariableOp:0" precision="FP32">
					<dim>120</dim>
					<dim>40</dim>
					<dim>1</dim>
					<dim>1</dim>
				</port>
			</output>
		</layer>
		<layer id="228" name="expanded_conv_6/expand/Conv2D" type="Convolution" version="opset1">
			<data auto_pad="same_upper" dilations="1, 1" pads_begin="0, 0" pads_end="0, 0" strides="1, 1"/>
			<input>
				<port id="0" precision="FP32">
					<dim>1</dim>
					<dim>40</dim>
					<dim>24</dim>
					<dim>24</dim>
				</port>
				<port id="1" precision="FP32">
					<dim>120</dim>
					<dim>40</dim>
					<dim>1</dim>
					<dim>1</dim>
				</port>
			</input>
			<output>
				<port id="2" names="expanded_conv_6/expand/BatchNorm/batchnorm/mul_1:0" precision="FP32">
					<dim>1</dim>
					<dim>120</dim>
					<dim>24</dim>
					<dim>24</dim>
				</port>
			</output>
		</layer>
		<layer id="229" name="expanded_conv_6/expand/BatchNorm/batchnorm/sub" type="Const" version="opset1">
			<data element_type="f32" offset="567636" shape="1, 120, 1, 1" size="480"/>
			<output>
				<port id="0" names="expanded_conv_6/expand/BatchNorm/batchnorm/sub:0" precision="FP32">
					<dim>1</dim>
					<dim>120</dim>
					<dim>1</dim>
					<dim>1</dim>
				</port>
			</output>
		</layer>
		<layer id="230" name="expanded_conv_6/expand/BatchNorm/batchnorm/add_1" type="Add" version="opset1">
			<data auto_broadcast="numpy"/>
			<input>
				<port id="0" precision="FP32">
					<dim>1</dim>
					<dim>120</dim>
					<dim>24</dim>
					<dim>24</dim>
				</port>
				<port id="1" precision="FP32">
					<dim>1</dim>
					<dim>120</dim>
					<dim>1</dim>
					<dim>1</dim>
				</port>
			</input>
			<output>
				<port id="2" names="expanded_conv_6/expand/BatchNorm/batchnorm/add_1:0" precision="FP32">
					<dim>1</dim>
					<dim>120</dim>
					<dim>24</dim>
					<dim>24</dim>
				</port>
			</output>
		</layer>
		<layer id="231" name="activation_16/activation_7/mul" type="HSigmoid" version="opset5">
			<input>
				<port id="0" precision="FP32">
					<dim>1</dim>
					<dim>120</dim>
					<dim>24</dim>
					<dim>24</dim>
				</port>
			</input>
			<output>
				<port id="1" names="activation_16/activation_7/mul:0" precision="FP32">
					<dim>1</dim>
					<dim>120</dim>
					<dim>24</dim>
					<dim>24</dim>
				</port>
			</output>
		</layer>
		<layer id="232" name="activation_16/multiply_7/mul" type="Multiply" version="opset1">
			<data auto_broadcast="numpy"/>
			<input>
				<port id="0" precision="FP32">
					<dim>1</dim>
					<dim>120</dim>
					<dim>24</dim>
					<dim>24</dim>
				</port>
				<port id="1" precision="FP32">
					<dim>1</dim>
					<dim>120</dim>
					<dim>24</dim>
					<dim>24</dim>
				</port>
			</input>
			<output>
				<port id="2" names="activation_16/multiply_7/mul:0" precision="FP32">
					<dim>1</dim>
					<dim>120</dim>
					<dim>24</dim>
					<dim>24</dim>
				</port>
			</output>
		</layer>
		<layer id="233" name="expanded_conv_6/depthwise/BatchNorm/batchnorm/mul_1_copy" type="Const" version="opset1">
			<data element_type="f32" offset="568116" shape="120, 1, 1, 5, 5" size="12000"/>
			<output>
				<port id="0" names="expanded_conv_6/depthwise/Conv/depthwise/ReadVariableOp:0" precision="FP32">
					<dim>120</dim>
					<dim>1</dim>
					<dim>1</dim>
					<dim>5</dim>
					<dim>5</dim>
				</port>
			</output>
		</layer>
		<layer id="234" name="expanded_conv_6/depthwise/Conv/depthwise" type="GroupConvolution" version="opset1">
			<data auto_pad="same_upper" dilations="1, 1" pads_begin="2, 2" pads_end="2, 2" strides="1, 1"/>
			<input>
				<port id="0" precision="FP32">
					<dim>1</dim>
					<dim>120</dim>
					<dim>24</dim>
					<dim>24</dim>
				</port>
				<port id="1" precision="FP32">
					<dim>120</dim>
					<dim>1</dim>
					<dim>1</dim>
					<dim>5</dim>
					<dim>5</dim>
				</port>
			</input>
			<output>
				<port id="2" names="expanded_conv_6/depthwise/BatchNorm/batchnorm/mul_1:0" precision="FP32">
					<dim>1</dim>
					<dim>120</dim>
					<dim>24</dim>
					<dim>24</dim>
				</port>
			</output>
		</layer>
		<layer id="235" name="expanded_conv_6/depthwise/BatchNorm/batchnorm/sub" type="Const" version="opset1">
			<data element_type="f32" offset="580116" shape="1, 120, 1, 1" size="480"/>
			<output>
				<port id="0" names="expanded_conv_6/depthwise/BatchNorm/batchnorm/sub:0" precision="FP32">
					<dim>1</dim>
					<dim>120</dim>
					<dim>1</dim>
					<dim>1</dim>
				</port>
			</output>
		</layer>
		<layer id="236" name="expanded_conv_6/depthwise/BatchNorm/batchnorm/add_1" type="Add" version="opset1">
			<data auto_broadcast="numpy"/>
			<input>
				<port id="0" precision="FP32">
					<dim>1</dim>
					<dim>120</dim>
					<dim>24</dim>
					<dim>24</dim>
				</port>
				<port id="1" precision="FP32">
					<dim>1</dim>
					<dim>120</dim>
					<dim>1</dim>
					<dim>1</dim>
				</port>
			</input>
			<output>
				<port id="2" names="expanded_conv_6/depthwise/BatchNorm/batchnorm/add_1:0" precision="FP32">
					<dim>1</dim>
					<dim>120</dim>
					<dim>24</dim>
					<dim>24</dim>
				</port>
			</output>
		</layer>
		<layer id="237" name="activation_17/activation_8/mul" type="HSigmoid" version="opset5">
			<input>
				<port id="0" precision="FP32">
					<dim>1</dim>
					<dim>120</dim>
					<dim>24</dim>
					<dim>24</dim>
				</port>
			</input>
			<output>
				<port id="1" names="activation_17/activation_8/mul:0" precision="FP32">
					<dim>1</dim>
					<dim>120</dim>
					<dim>24</dim>
					<dim>24</dim>
				</port>
			</output>
		</layer>
		<layer id="238" name="activation_17/multiply_8/mul" type="Multiply" version="opset1">
			<data auto_broadcast="numpy"/>
			<input>
				<port id="0" precision="FP32">
					<dim>1</dim>
					<dim>120</dim>
					<dim>24</dim>
					<dim>24</dim>
				</port>
				<port id="1" precision="FP32">
					<dim>1</dim>
					<dim>120</dim>
					<dim>24</dim>
					<dim>24</dim>
				</port>
			</input>
			<output>
				<port id="2" precision="FP32">
					<dim>1</dim>
					<dim>120</dim>
					<dim>24</dim>
					<dim>24</dim>
				</port>
			</output>
		</layer>
		<layer id="239" name="expanded_conv_6/squeeze_excite/AvgPool/MeanGather1696822810" type="Const" version="opset1">
			<data element_type="i64" offset="2500" shape="2" size="16"/>
			<output>
				<port id="0" precision="I64">
					<dim>2</dim>
				</port>
			</output>
		</layer>
		<layer id="240" name="expanded_conv_6/squeeze_excite/AvgPool/Mean" type="ReduceMean" version="opset1">
			<data keep_dims="false"/>
			<input>
				<port id="0" precision="FP32">
					<dim>1</dim>
					<dim>120</dim>
					<dim>24</dim>
					<dim>24</dim>
				</port>
				<port id="1" precision="I64">
					<dim>2</dim>
				</port>
			</input>
			<output>
				<port id="2" names="expanded_conv_6/squeeze_excite/AvgPool/Mean:0" precision="FP32">
					<dim>1</dim>
					<dim>120</dim>
				</port>
			</output>
		</layer>
		<layer id="241" name="reshape_4/Shape" type="ShapeOf" version="opset3">
			<data output_type="i32"/>
			<input>
				<port id="0" precision="FP32">
					<dim>1</dim>
					<dim>120</dim>
				</port>
			</input>
			<output>
				<port id="1" names="reshape_4/Shape:0" precision="I32">
					<dim>2</dim>
				</port>
			</output>
		</layer>
		<layer id="242" name="reshape_4/strided_slice/stack" type="Const" version="opset1">
			<data element_type="i64" offset="2516" shape="1" size="8"/>
			<output>
				<port id="0" names="reshape_4/strided_slice/stack:0" precision="I64">
					<dim>1</dim>
				</port>
			</output>
		</layer>
		<layer id="243" name="reshape_4/strided_slice/stack_1" type="Const" version="opset1">
			<data element_type="i64" offset="2524" shape="1" size="8"/>
			<output>
				<port id="0" names="reshape_4/strided_slice/stack_1:0" precision="I64">
					<dim>1</dim>
				</port>
			</output>
		</layer>
		<layer id="244" name="reshape_4/strided_slice/stack_2" type="Const" version="opset1">
			<data element_type="i64" offset="2524" shape="1" size="8"/>
			<output>
				<port id="0" names="reshape_4/strided_slice/stack_2:0" precision="I64">
					<dim>1</dim>
				</port>
			</output>
		</layer>
		<layer id="245" name="reshape_4/strided_slice" type="StridedSlice" version="opset1">
			<data begin_mask="0" ellipsis_mask="0" end_mask="0" new_axis_mask="0" shrink_axis_mask="1"/>
			<input>
				<port id="0" precision="I32">
					<dim>2</dim>
				</port>
				<port id="1" precision="I64">
					<dim>1</dim>
				</port>
				<port id="2" precision="I64">
					<dim>1</dim>
				</port>
				<port id="3" precision="I64">
					<dim>1</dim>
				</port>
			</input>
			<output>
				<port id="4" names="reshape_4/strided_slice:0" precision="I32"/>
			</output>
		</layer>
		<layer id="246" name="reshape_4/Reshape/shape/Unsqueeze_input_port_1/value" type="Const" version="opset1">
			<data element_type="i64" offset="2516" shape="1" size="8"/>
			<output>
				<port id="0" precision="I64">
					<dim>1</dim>
				</port>
			</output>
		</layer>
		<layer id="247" name="reshape_4/Reshape/shape/Unsqueeze" type="Unsqueeze" version="opset1">
			<input>
				<port id="0" precision="I32"/>
				<port id="1" precision="I64">
					<dim>1</dim>
				</port>
			</input>
			<output>
				<port id="2" precision="I32">
					<dim>1</dim>
				</port>
			</output>
		</layer>
		<layer id="248" name="reshape_4/Reshape/shape/Unsqueeze1450" type="Const" version="opset1">
			<data element_type="i32" offset="2532" shape="1" size="4"/>
			<output>
				<port id="0" precision="I32">
					<dim>1</dim>
				</port>
			</output>
		</layer>
		<layer id="249" name="reshape_4/Reshape/shape/Unsqueeze1452" type="Const" version="opset1">
			<data element_type="i32" offset="2532" shape="1" size="4"/>
			<output>
				<port id="0" precision="I32">
					<dim>1</dim>
				</port>
			</output>
		</layer>
		<layer id="250" name="reshape_4/Reshape/shape/Unsqueeze1454" type="Const" version="opset1">
			<data element_type="i32" offset="580596" shape="1" size="4"/>
			<output>
				<port id="0" precision="I32">
					<dim>1</dim>
				</port>
			</output>
		</layer>
		<layer id="251" name="reshape_4/Reshape/shape" type="Concat" version="opset1">
			<data axis="0"/>
			<input>
				<port id="0" precision="I32">
					<dim>1</dim>
				</port>
				<port id="1" precision="I32">
					<dim>1</dim>
				</port>
				<port id="2" precision="I32">
					<dim>1</dim>
				</port>
				<port id="3" precision="I32">
					<dim>1</dim>
				</port>
			</input>
			<output>
				<port id="4" precision="I32">
					<dim>4</dim>
				</port>
			</output>
		</layer>
		<layer id="252" name="reshape_4/Reshape/Cast_1" type="Convert" version="opset1">
			<data destination_type="i64"/>
			<input>
				<port id="0" precision="I32">
					<dim>4</dim>
				</port>
			</input>
			<output>
				<port id="1" names="reshape_4/Reshape/shape:0" precision="I64">
					<dim>4</dim>
				</port>
			</output>
		</layer>
		<layer id="253" name="reshape_4/Reshape" type="Reshape" version="opset1">
			<data special_zero="false"/>
			<input>
				<port id="0" precision="FP32">
					<dim>1</dim>
					<dim>120</dim>
				</port>
				<port id="1" precision="I64">
					<dim>4</dim>
				</port>
			</input>
			<output>
				<port id="2" precision="FP32">
					<dim>1</dim>
					<dim>1</dim>
					<dim>1</dim>
					<dim>120</dim>
				</port>
			</output>
		</layer>
		<layer id="254" name="reshape_4/Reshape/Transpose/value1406323149" type="Const" version="opset1">
			<data element_type="i64" offset="2540" shape="4" size="32"/>
			<output>
				<port id="0" precision="I64">
					<dim>4</dim>
				</port>
			</output>
		</layer>
		<layer id="255" name="reshape_4/Reshape/Transpose" type="Transpose" version="opset1">
			<input>
				<port id="0" precision="FP32">
					<dim>1</dim>
					<dim>1</dim>
					<dim>1</dim>
					<dim>120</dim>
				</port>
				<port id="1" precision="I64">
					<dim>4</dim>
				</port>
			</input>
			<output>
				<port id="2" names="reshape_4/Reshape:0" precision="FP32">
					<dim>1</dim>
					<dim>120</dim>
					<dim>1</dim>
					<dim>1</dim>
				</port>
			</output>
		</layer>
		<layer id="256" name="expanded_conv_6/squeeze_excite/Conv/Conv2D/ReadVariableOp" type="Const" version="opset1">
			<data element_type="f32" offset="580600" shape="32, 120, 1, 1" size="15360"/>
			<output>
				<port id="0" names="expanded_conv_6/squeeze_excite/Conv/Conv2D/ReadVariableOp:0" precision="FP32">
					<dim>32</dim>
					<dim>120</dim>
					<dim>1</dim>
					<dim>1</dim>
				</port>
			</output>
		</layer>
		<layer id="257" name="expanded_conv_6/squeeze_excite/Conv/Conv2D" type="Convolution" version="opset1">
			<data auto_pad="same_upper" dilations="1, 1" pads_begin="0, 0" pads_end="0, 0" strides="1, 1"/>
			<input>
				<port id="0" precision="FP32">
					<dim>1</dim>
					<dim>120</dim>
					<dim>1</dim>
					<dim>1</dim>
				</port>
				<port id="1" precision="FP32">
					<dim>32</dim>
					<dim>120</dim>
					<dim>1</dim>
					<dim>1</dim>
				</port>
			</input>
			<output>
				<port id="2" names="expanded_conv_6/squeeze_excite/Conv/Conv2D:0" precision="FP32">
					<dim>1</dim>
					<dim>32</dim>
					<dim>1</dim>
					<dim>1</dim>
				</port>
			</output>
		</layer>
		<layer id="258" name="expanded_conv_6/squeeze_excite/Conv/BiasAdd/ReadVariableOp" type="Const" version="opset1">
			<data element_type="f32" offset="595960" shape="1, 32, 1, 1" size="128"/>
			<output>
				<port id="0" names="expanded_conv_6/squeeze_excite/Conv/BiasAdd/ReadVariableOp:0" precision="FP32">
					<dim>1</dim>
					<dim>32</dim>
					<dim>1</dim>
					<dim>1</dim>
				</port>
			</output>
		</layer>
		<layer id="259" name="expanded_conv_6/squeeze_excite/Conv/BiasAdd/Add" type="Add" version="opset1">
			<data auto_broadcast="numpy"/>
			<input>
				<port id="0" precision="FP32">
					<dim>1</dim>
					<dim>32</dim>
					<dim>1</dim>
					<dim>1</dim>
				</port>
				<port id="1" precision="FP32">
					<dim>1</dim>
					<dim>32</dim>
					<dim>1</dim>
					<dim>1</dim>
				</port>
			</input>
			<output>
				<port id="2" names="expanded_conv_6/squeeze_excite/Conv/BiasAdd:0" precision="FP32">
					<dim>1</dim>
					<dim>32</dim>
					<dim>1</dim>
					<dim>1</dim>
				</port>
			</output>
		</layer>
		<layer id="260" name="expanded_conv_6/squeeze_excite/Relu/Relu" type="ReLU" version="opset1">
			<input>
				<port id="0" precision="FP32">
					<dim>1</dim>
					<dim>32</dim>
					<dim>1</dim>
					<dim>1</dim>
				</port>
			</input>
			<output>
				<port id="1" names="expanded_conv_6/squeeze_excite/Relu/Relu:0" precision="FP32">
					<dim>1</dim>
					<dim>32</dim>
					<dim>1</dim>
					<dim>1</dim>
				</port>
			</output>
		</layer>
		<layer id="261" name="expanded_conv_6/squeeze_excite/Conv_1/Conv2D/ReadVariableOp" type="Const" version="opset1">
			<data element_type="f32" offset="596088" shape="120, 32, 1, 1" size="15360"/>
			<output>
				<port id="0" names="expanded_conv_6/squeeze_excite/Conv_1/Conv2D/ReadVariableOp:0" precision="FP32">
					<dim>120</dim>
					<dim>32</dim>
					<dim>1</dim>
					<dim>1</dim>
				</port>
			</output>
		</layer>
		<layer id="262" name="expanded_conv_6/squeeze_excite/Conv_1/Conv2D" type="Convolution" version="opset1">
			<data auto_pad="same_upper" dilations="1, 1" pads_begin="0, 0" pads_end="0, 0" strides="1, 1"/>
			<input>
				<port id="0" precision="FP32">
					<dim>1</dim>
					<dim>32</dim>
					<dim>1</dim>
					<dim>1</dim>
				</port>
				<port id="1" precision="FP32">
					<dim>120</dim>
					<dim>32</dim>
					<dim>1</dim>
					<dim>1</dim>
				</port>
			</input>
			<output>
				<port id="2" names="expanded_conv_6/squeeze_excite/Conv_1/Conv2D:0" precision="FP32">
					<dim>1</dim>
					<dim>120</dim>
					<dim>1</dim>
					<dim>1</dim>
				</port>
			</output>
		</layer>
		<layer id="263" name="expanded_conv_6/squeeze_excite/Conv_1/BiasAdd/ReadVariableOp" type="Const" version="opset1">
			<data element_type="f32" offset="611448" shape="1, 120, 1, 1" size="480"/>
			<output>
				<port id="0" names="expanded_conv_6/squeeze_excite/Conv_1/BiasAdd/ReadVariableOp:0" precision="FP32">
					<dim>1</dim>
					<dim>120</dim>
					<dim>1</dim>
					<dim>1</dim>
				</port>
			</output>
		</layer>
		<layer id="264" name="expanded_conv_6/squeeze_excite/Conv_1/BiasAdd/Add" type="Add" version="opset1">
			<data auto_broadcast="numpy"/>
			<input>
				<port id="0" precision="FP32">
					<dim>1</dim>
					<dim>120</dim>
					<dim>1</dim>
					<dim>1</dim>
				</port>
				<port id="1" precision="FP32">
					<dim>1</dim>
					<dim>120</dim>
					<dim>1</dim>
					<dim>1</dim>
				</port>
			</input>
			<output>
				<port id="2" names="expanded_conv_6/squeeze_excite/Conv_1/BiasAdd:0" precision="FP32">
					<dim>1</dim>
					<dim>120</dim>
					<dim>1</dim>
					<dim>1</dim>
				</port>
			</output>
		</layer>
		<layer id="265" name="activation_18/mul" type="HSigmoid" version="opset5">
			<input>
				<port id="0" precision="FP32">
					<dim>1</dim>
					<dim>120</dim>
					<dim>1</dim>
					<dim>1</dim>
				</port>
			</input>
			<output>
				<port id="1" names="activation_18/mul:0" precision="FP32">
					<dim>1</dim>
					<dim>120</dim>
					<dim>1</dim>
					<dim>1</dim>
				</port>
			</output>
		</layer>
		<layer id="266" name="expanded_conv_6/squeeze_excite/Mul/mul" type="Multiply" version="opset1">
			<data auto_broadcast="numpy"/>
			<input>
				<port id="0" precision="FP32">
					<dim>1</dim>
					<dim>120</dim>
					<dim>24</dim>
					<dim>24</dim>
				</port>
				<port id="1" precision="FP32">
					<dim>1</dim>
					<dim>120</dim>
					<dim>1</dim>
					<dim>1</dim>
				</port>
			</input>
			<output>
				<port id="2" names="expanded_conv_6/squeeze_excite/Mul/mul:0" precision="FP32">
					<dim>1</dim>
					<dim>120</dim>
					<dim>24</dim>
					<dim>24</dim>
				</port>
			</output>
		</layer>
		<layer id="267" name="expanded_conv_6/project/BatchNorm/batchnorm/mul_1_copy" type="Const" version="opset1">
			<data element_type="f32" offset="611928" shape="48, 120, 1, 1" size="23040"/>
			<output>
				<port id="0" names="expanded_conv_6/project/Conv2D/ReadVariableOp:0" precision="FP32">
					<dim>48</dim>
					<dim>120</dim>
					<dim>1</dim>
					<dim>1</dim>
				</port>
			</output>
		</layer>
		<layer id="268" name="expanded_conv_6/project/Conv2D" type="Convolution" version="opset1">
			<data auto_pad="same_upper" dilations="1, 1" pads_begin="0, 0" pads_end="0, 0" strides="1, 1"/>
			<input>
				<port id="0" precision="FP32">
					<dim>1</dim>
					<dim>120</dim>
					<dim>24</dim>
					<dim>24</dim>
				</port>
				<port id="1" precision="FP32">
					<dim>48</dim>
					<dim>120</dim>
					<dim>1</dim>
					<dim>1</dim>
				</port>
			</input>
			<output>
				<port id="2" names="expanded_conv_6/project/BatchNorm/batchnorm/mul_1:0" precision="FP32">
					<dim>1</dim>
					<dim>48</dim>
					<dim>24</dim>
					<dim>24</dim>
				</port>
			</output>
		</layer>
		<layer id="269" name="expanded_conv_6/project/BatchNorm/batchnorm/sub" type="Const" version="opset1">
			<data element_type="f32" offset="634968" shape="1, 48, 1, 1" size="192"/>
			<output>
				<port id="0" names="expanded_conv_6/project/BatchNorm/batchnorm/sub:0" precision="FP32">
					<dim>1</dim>
					<dim>48</dim>
					<dim>1</dim>
					<dim>1</dim>
				</port>
			</output>
		</layer>
		<layer id="270" name="expanded_conv_6/project/BatchNorm/batchnorm/add_1" type="Add" version="opset1">
			<data auto_broadcast="numpy"/>
			<input>
				<port id="0" precision="FP32">
					<dim>1</dim>
					<dim>48</dim>
					<dim>24</dim>
					<dim>24</dim>
				</port>
				<port id="1" precision="FP32">
					<dim>1</dim>
					<dim>48</dim>
					<dim>1</dim>
					<dim>1</dim>
				</port>
			</input>
			<output>
				<port id="2" names="expanded_conv_6/project/BatchNorm/batchnorm/add_1:0" precision="FP32">
					<dim>1</dim>
					<dim>48</dim>
					<dim>24</dim>
					<dim>24</dim>
				</port>
			</output>
		</layer>
		<layer id="271" name="expanded_conv_7/expand/BatchNorm/batchnorm/mul_1_copy" type="Const" version="opset1">
			<data element_type="f32" offset="635160" shape="144, 48, 1, 1" size="27648"/>
			<output>
				<port id="0" names="expanded_conv_7/expand/Conv2D/ReadVariableOp:0" precision="FP32">
					<dim>144</dim>
					<dim>48</dim>
					<dim>1</dim>
					<dim>1</dim>
				</port>
			</output>
		</layer>
		<layer id="272" name="expanded_conv_7/expand/Conv2D" type="Convolution" version="opset1">
			<data auto_pad="same_upper" dilations="1, 1" pads_begin="0, 0" pads_end="0, 0" strides="1, 1"/>
			<input>
				<port id="0" precision="FP32">
					<dim>1</dim>
					<dim>48</dim>
					<dim>24</dim>
					<dim>24</dim>
				</port>
				<port id="1" precision="FP32">
					<dim>144</dim>
					<dim>48</dim>
					<dim>1</dim>
					<dim>1</dim>
				</port>
			</input>
			<output>
				<port id="2" names="expanded_conv_7/expand/BatchNorm/batchnorm/mul_1:0" precision="FP32">
					<dim>1</dim>
					<dim>144</dim>
					<dim>24</dim>
					<dim>24</dim>
				</port>
			</output>
		</layer>
		<layer id="273" name="expanded_conv_7/expand/BatchNorm/batchnorm/sub" type="Const" version="opset1">
			<data element_type="f32" offset="662808" shape="1, 144, 1, 1" size="576"/>
			<output>
				<port id="0" names="expanded_conv_7/expand/BatchNorm/batchnorm/sub:0" precision="FP32">
					<dim>1</dim>
					<dim>144</dim>
					<dim>1</dim>
					<dim>1</dim>
				</port>
			</output>
		</layer>
		<layer id="274" name="expanded_conv_7/expand/BatchNorm/batchnorm/add_1" type="Add" version="opset1">
			<data auto_broadcast="numpy"/>
			<input>
				<port id="0" precision="FP32">
					<dim>1</dim>
					<dim>144</dim>
					<dim>24</dim>
					<dim>24</dim>
				</port>
				<port id="1" precision="FP32">
					<dim>1</dim>
					<dim>144</dim>
					<dim>1</dim>
					<dim>1</dim>
				</port>
			</input>
			<output>
				<port id="2" names="expanded_conv_7/expand/BatchNorm/batchnorm/add_1:0" precision="FP32">
					<dim>1</dim>
					<dim>144</dim>
					<dim>24</dim>
					<dim>24</dim>
				</port>
			</output>
		</layer>
		<layer id="275" name="activation_19/activation_9/mul" type="HSigmoid" version="opset5">
			<input>
				<port id="0" precision="FP32">
					<dim>1</dim>
					<dim>144</dim>
					<dim>24</dim>
					<dim>24</dim>
				</port>
			</input>
			<output>
				<port id="1" names="activation_19/activation_9/mul:0" precision="FP32">
					<dim>1</dim>
					<dim>144</dim>
					<dim>24</dim>
					<dim>24</dim>
				</port>
			</output>
		</layer>
		<layer id="276" name="activation_19/multiply_9/mul" type="Multiply" version="opset1">
			<data auto_broadcast="numpy"/>
			<input>
				<port id="0" precision="FP32">
					<dim>1</dim>
					<dim>144</dim>
					<dim>24</dim>
					<dim>24</dim>
				</port>
				<port id="1" precision="FP32">
					<dim>1</dim>
					<dim>144</dim>
					<dim>24</dim>
					<dim>24</dim>
				</port>
			</input>
			<output>
				<port id="2" names="activation_19/multiply_9/mul:0" precision="FP32">
					<dim>1</dim>
					<dim>144</dim>
					<dim>24</dim>
					<dim>24</dim>
				</port>
			</output>
		</layer>
		<layer id="277" name="expanded_conv_7/depthwise/BatchNorm/batchnorm/mul_1_copy" type="Const" version="opset1">
			<data element_type="f32" offset="663384" shape="144, 1, 1, 5, 5" size="14400"/>
			<output>
				<port id="0" names="expanded_conv_7/depthwise/Conv/depthwise/ReadVariableOp:0" precision="FP32">
					<dim>144</dim>
					<dim>1</dim>
					<dim>1</dim>
					<dim>5</dim>
					<dim>5</dim>
				</port>
			</output>
		</layer>
		<layer id="278" name="expanded_conv_7/depthwise/Conv/depthwise" type="GroupConvolution" version="opset1">
			<data auto_pad="same_upper" dilations="1, 1" pads_begin="2, 2" pads_end="2, 2" strides="1, 1"/>
			<input>
				<port id="0" precision="FP32">
					<dim>1</dim>
					<dim>144</dim>
					<dim>24</dim>
					<dim>24</dim>
				</port>
				<port id="1" precision="FP32">
					<dim>144</dim>
					<dim>1</dim>
					<dim>1</dim>
					<dim>5</dim>
					<dim>5</dim>
				</port>
			</input>
			<output>
				<port id="2" names="expanded_conv_7/depthwise/BatchNorm/batchnorm/mul_1:0" precision="FP32">
					<dim>1</dim>
					<dim>144</dim>
					<dim>24</dim>
					<dim>24</dim>
				</port>
			</output>
		</layer>
		<layer id="279" name="expanded_conv_7/depthwise/BatchNorm/batchnorm/sub" type="Const" version="opset1">
			<data element_type="f32" offset="677784" shape="1, 144, 1, 1" size="576"/>
			<output>
				<port id="0" names="expanded_conv_7/depthwise/BatchNorm/batchnorm/sub:0" precision="FP32">
					<dim>1</dim>
					<dim>144</dim>
					<dim>1</dim>
					<dim>1</dim>
				</port>
			</output>
		</layer>
		<layer id="280" name="expanded_conv_7/depthwise/BatchNorm/batchnorm/add_1" type="Add" version="opset1">
			<data auto_broadcast="numpy"/>
			<input>
				<port id="0" precision="FP32">
					<dim>1</dim>
					<dim>144</dim>
					<dim>24</dim>
					<dim>24</dim>
				</port>
				<port id="1" precision="FP32">
					<dim>1</dim>
					<dim>144</dim>
					<dim>1</dim>
					<dim>1</dim>
				</port>
			</input>
			<output>
				<port id="2" names="expanded_conv_7/depthwise/BatchNorm/batchnorm/add_1:0" precision="FP32">
					<dim>1</dim>
					<dim>144</dim>
					<dim>24</dim>
					<dim>24</dim>
				</port>
			</output>
		</layer>
		<layer id="281" name="activation_20/activation_10/mul" type="HSigmoid" version="opset5">
			<input>
				<port id="0" precision="FP32">
					<dim>1</dim>
					<dim>144</dim>
					<dim>24</dim>
					<dim>24</dim>
				</port>
			</input>
			<output>
				<port id="1" names="activation_20/activation_10/mul:0" precision="FP32">
					<dim>1</dim>
					<dim>144</dim>
					<dim>24</dim>
					<dim>24</dim>
				</port>
			</output>
		</layer>
		<layer id="282" name="activation_20/multiply_10/mul" type="Multiply" version="opset1">
			<data auto_broadcast="numpy"/>
			<input>
				<port id="0" precision="FP32">
					<dim>1</dim>
					<dim>144</dim>
					<dim>24</dim>
					<dim>24</dim>
				</port>
				<port id="1" precision="FP32">
					<dim>1</dim>
					<dim>144</dim>
					<dim>24</dim>
					<dim>24</dim>
				</port>
			</input>
			<output>
				<port id="2" precision="FP32">
					<dim>1</dim>
					<dim>144</dim>
					<dim>24</dim>
					<dim>24</dim>
				</port>
			</output>
		</layer>
		<layer id="283" name="expanded_conv_7/squeeze_excite/AvgPool/MeanGather1695223080" type="Const" version="opset1">
			<data element_type="i64" offset="2500" shape="2" size="16"/>
			<output>
				<port id="0" precision="I64">
					<dim>2</dim>
				</port>
			</output>
		</layer>
		<layer id="284" name="expanded_conv_7/squeeze_excite/AvgPool/Mean" type="ReduceMean" version="opset1">
			<data keep_dims="false"/>
			<input>
				<port id="0" precision="FP32">
					<dim>1</dim>
					<dim>144</dim>
					<dim>24</dim>
					<dim>24</dim>
				</port>
				<port id="1" precision="I64">
					<dim>2</dim>
				</port>
			</input>
			<output>
				<port id="2" names="expanded_conv_7/squeeze_excite/AvgPool/Mean:0" precision="FP32">
					<dim>1</dim>
					<dim>144</dim>
				</port>
			</output>
		</layer>
		<layer id="285" name="reshape_5/Shape" type="ShapeOf" version="opset3">
			<data output_type="i32"/>
			<input>
				<port id="0" precision="FP32">
					<dim>1</dim>
					<dim>144</dim>
				</port>
			</input>
			<output>
				<port id="1" names="reshape_5/Shape:0" precision="I32">
					<dim>2</dim>
				</port>
			</output>
		</layer>
		<layer id="286" name="reshape_5/strided_slice/stack" type="Const" version="opset1">
			<data element_type="i64" offset="2516" shape="1" size="8"/>
			<output>
				<port id="0" names="reshape_5/strided_slice/stack:0" precision="I64">
					<dim>1</dim>
				</port>
			</output>
		</layer>
		<layer id="287" name="reshape_5/strided_slice/stack_1" type="Const" version="opset1">
			<data element_type="i64" offset="2524" shape="1" size="8"/>
			<output>
				<port id="0" names="reshape_5/strided_slice/stack_1:0" precision="I64">
					<dim>1</dim>
				</port>
			</output>
		</layer>
		<layer id="288" name="reshape_5/strided_slice/stack_2" type="Const" version="opset1">
			<data element_type="i64" offset="2524" shape="1" size="8"/>
			<output>
				<port id="0" names="reshape_5/strided_slice/stack_2:0" precision="I64">
					<dim>1</dim>
				</port>
			</output>
		</layer>
		<layer id="289" name="reshape_5/strided_slice" type="StridedSlice" version="opset1">
			<data begin_mask="0" ellipsis_mask="0" end_mask="0" new_axis_mask="0" shrink_axis_mask="1"/>
			<input>
				<port id="0" precision="I32">
					<dim>2</dim>
				</port>
				<port id="1" precision="I64">
					<dim>1</dim>
				</port>
				<port id="2" precision="I64">
					<dim>1</dim>
				</port>
				<port id="3" precision="I64">
					<dim>1</dim>
				</port>
			</input>
			<output>
				<port id="4" names="reshape_5/strided_slice:0" precision="I32"/>
			</output>
		</layer>
		<layer id="290" name="reshape_5/Reshape/shape/Unsqueeze_input_port_1/value" type="Const" version="opset1">
			<data element_type="i64" offset="2516" shape="1" size="8"/>
			<output>
				<port id="0" precision="I64">
					<dim>1</dim>
				</port>
			</output>
		</layer>
		<layer id="291" name="reshape_5/Reshape/shape/Unsqueeze" type="Unsqueeze" version="opset1">
			<input>
				<port id="0" precision="I32"/>
				<port id="1" precision="I64">
					<dim>1</dim>
				</port>
			</input>
			<output>
				<port id="2" precision="I32">
					<dim>1</dim>
				</port>
			</output>
		</layer>
		<layer id="292" name="reshape_5/Reshape/shape/Unsqueeze1432" type="Const" version="opset1">
			<data element_type="i32" offset="2532" shape="1" size="4"/>
			<output>
				<port id="0" precision="I32">
					<dim>1</dim>
				</port>
			</output>
		</layer>
		<layer id="293" name="reshape_5/Reshape/shape/Unsqueeze1434" type="Const" version="opset1">
			<data element_type="i32" offset="2532" shape="1" size="4"/>
			<output>
				<port id="0" precision="I32">
					<dim>1</dim>
				</port>
			</output>
		</layer>
		<layer id="294" name="reshape_5/Reshape/shape/Unsqueeze1436" type="Const" version="opset1">
			<data element_type="i32" offset="678360" shape="1" size="4"/>
			<output>
				<port id="0" precision="I32">
					<dim>1</dim>
				</port>
			</output>
		</layer>
		<layer id="295" name="reshape_5/Reshape/shape" type="Concat" version="opset1">
			<data axis="0"/>
			<input>
				<port id="0" precision="I32">
					<dim>1</dim>
				</port>
				<port id="1" precision="I32">
					<dim>1</dim>
				</port>
				<port id="2" precision="I32">
					<dim>1</dim>
				</port>
				<port id="3" precision="I32">
					<dim>1</dim>
				</port>
			</input>
			<output>
				<port id="4" precision="I32">
					<dim>4</dim>
				</port>
			</output>
		</layer>
		<layer id="296" name="reshape_5/Reshape/Cast_1" type="Convert" version="opset1">
			<data destination_type="i64"/>
			<input>
				<port id="0" precision="I32">
					<dim>4</dim>
				</port>
			</input>
			<output>
				<port id="1" names="reshape_5/Reshape/shape:0" precision="I64">
					<dim>4</dim>
				</port>
			</output>
		</layer>
		<layer id="297" name="reshape_5/Reshape" type="Reshape" version="opset1">
			<data special_zero="false"/>
			<input>
				<port id="0" precision="FP32">
					<dim>1</dim>
					<dim>144</dim>
				</port>
				<port id="1" precision="I64">
					<dim>4</dim>
				</port>
			</input>
			<output>
				<port id="2" precision="FP32">
					<dim>1</dim>
					<dim>1</dim>
					<dim>1</dim>
					<dim>144</dim>
				</port>
			</output>
		</layer>
		<layer id="298" name="reshape_5/Reshape/Transpose/value1406722534" type="Const" version="opset1">
			<data element_type="i64" offset="2540" shape="4" size="32"/>
			<output>
				<port id="0" precision="I64">
					<dim>4</dim>
				</port>
			</output>
		</layer>
		<layer id="299" name="reshape_5/Reshape/Transpose" type="Transpose" version="opset1">
			<input>
				<port id="0" precision="FP32">
					<dim>1</dim>
					<dim>1</dim>
					<dim>1</dim>
					<dim>144</dim>
				</port>
				<port id="1" precision="I64">
					<dim>4</dim>
				</port>
			</input>
			<output>
				<port id="2" names="reshape_5/Reshape:0" precision="FP32">
					<dim>1</dim>
					<dim>144</dim>
					<dim>1</dim>
					<dim>1</dim>
				</port>
			</output>
		</layer>
		<layer id="300" name="expanded_conv_7/squeeze_excite/Conv/Conv2D/ReadVariableOp" type="Const" version="opset1">
			<data element_type="f32" offset="678364" shape="40, 144, 1, 1" size="23040"/>
			<output>
				<port id="0" names="expanded_conv_7/squeeze_excite/Conv/Conv2D/ReadVariableOp:0" precision="FP32">
					<dim>40</dim>
					<dim>144</dim>
					<dim>1</dim>
					<dim>1</dim>
				</port>
			</output>
		</layer>
		<layer id="301" name="expanded_conv_7/squeeze_excite/Conv/Conv2D" type="Convolution" version="opset1">
			<data auto_pad="same_upper" dilations="1, 1" pads_begin="0, 0" pads_end="0, 0" strides="1, 1"/>
			<input>
				<port id="0" precision="FP32">
					<dim>1</dim>
					<dim>144</dim>
					<dim>1</dim>
					<dim>1</dim>
				</port>
				<port id="1" precision="FP32">
					<dim>40</dim>
					<dim>144</dim>
					<dim>1</dim>
					<dim>1</dim>
				</port>
			</input>
			<output>
				<port id="2" names="expanded_conv_7/squeeze_excite/Conv/Conv2D:0" precision="FP32">
					<dim>1</dim>
					<dim>40</dim>
					<dim>1</dim>
					<dim>1</dim>
				</port>
			</output>
		</layer>
		<layer id="302" name="expanded_conv_7/squeeze_excite/Conv/BiasAdd/ReadVariableOp" type="Const" version="opset1">
			<data element_type="f32" offset="701404" shape="1, 40, 1, 1" size="160"/>
			<output>
				<port id="0" names="expanded_conv_7/squeeze_excite/Conv/BiasAdd/ReadVariableOp:0" precision="FP32">
					<dim>1</dim>
					<dim>40</dim>
					<dim>1</dim>
					<dim>1</dim>
				</port>
			</output>
		</layer>
		<layer id="303" name="expanded_conv_7/squeeze_excite/Conv/BiasAdd/Add" type="Add" version="opset1">
			<data auto_broadcast="numpy"/>
			<input>
				<port id="0" precision="FP32">
					<dim>1</dim>
					<dim>40</dim>
					<dim>1</dim>
					<dim>1</dim>
				</port>
				<port id="1" precision="FP32">
					<dim>1</dim>
					<dim>40</dim>
					<dim>1</dim>
					<dim>1</dim>
				</port>
			</input>
			<output>
				<port id="2" names="expanded_conv_7/squeeze_excite/Conv/BiasAdd:0" precision="FP32">
					<dim>1</dim>
					<dim>40</dim>
					<dim>1</dim>
					<dim>1</dim>
				</port>
			</output>
		</layer>
		<layer id="304" name="expanded_conv_7/squeeze_excite/Relu/Relu" type="ReLU" version="opset1">
			<input>
				<port id="0" precision="FP32">
					<dim>1</dim>
					<dim>40</dim>
					<dim>1</dim>
					<dim>1</dim>
				</port>
			</input>
			<output>
				<port id="1" names="expanded_conv_7/squeeze_excite/Relu/Relu:0" precision="FP32">
					<dim>1</dim>
					<dim>40</dim>
					<dim>1</dim>
					<dim>1</dim>
				</port>
			</output>
		</layer>
		<layer id="305" name="expanded_conv_7/squeeze_excite/Conv_1/Conv2D/ReadVariableOp" type="Const" version="opset1">
			<data element_type="f32" offset="701564" shape="144, 40, 1, 1" size="23040"/>
			<output>
				<port id="0" names="expanded_conv_7/squeeze_excite/Conv_1/Conv2D/ReadVariableOp:0" precision="FP32">
					<dim>144</dim>
					<dim>40</dim>
					<dim>1</dim>
					<dim>1</dim>
				</port>
			</output>
		</layer>
		<layer id="306" name="expanded_conv_7/squeeze_excite/Conv_1/Conv2D" type="Convolution" version="opset1">
			<data auto_pad="same_upper" dilations="1, 1" pads_begin="0, 0" pads_end="0, 0" strides="1, 1"/>
			<input>
				<port id="0" precision="FP32">
					<dim>1</dim>
					<dim>40</dim>
					<dim>1</dim>
					<dim>1</dim>
				</port>
				<port id="1" precision="FP32">
					<dim>144</dim>
					<dim>40</dim>
					<dim>1</dim>
					<dim>1</dim>
				</port>
			</input>
			<output>
				<port id="2" names="expanded_conv_7/squeeze_excite/Conv_1/Conv2D:0" precision="FP32">
					<dim>1</dim>
					<dim>144</dim>
					<dim>1</dim>
					<dim>1</dim>
				</port>
			</output>
		</layer>
		<layer id="307" name="expanded_conv_7/squeeze_excite/Conv_1/BiasAdd/ReadVariableOp" type="Const" version="opset1">
			<data element_type="f32" offset="724604" shape="1, 144, 1, 1" size="576"/>
			<output>
				<port id="0" names="expanded_conv_7/squeeze_excite/Conv_1/BiasAdd/ReadVariableOp:0" precision="FP32">
					<dim>1</dim>
					<dim>144</dim>
					<dim>1</dim>
					<dim>1</dim>
				</port>
			</output>
		</layer>
		<layer id="308" name="expanded_conv_7/squeeze_excite/Conv_1/BiasAdd/Add" type="Add" version="opset1">
			<data auto_broadcast="numpy"/>
			<input>
				<port id="0" precision="FP32">
					<dim>1</dim>
					<dim>144</dim>
					<dim>1</dim>
					<dim>1</dim>
				</port>
				<port id="1" precision="FP32">
					<dim>1</dim>
					<dim>144</dim>
					<dim>1</dim>
					<dim>1</dim>
				</port>
			</input>
			<output>
				<port id="2" names="expanded_conv_7/squeeze_excite/Conv_1/BiasAdd:0" precision="FP32">
					<dim>1</dim>
					<dim>144</dim>
					<dim>1</dim>
					<dim>1</dim>
				</port>
			</output>
		</layer>
		<layer id="309" name="activation_21/mul" type="HSigmoid" version="opset5">
			<input>
				<port id="0" precision="FP32">
					<dim>1</dim>
					<dim>144</dim>
					<dim>1</dim>
					<dim>1</dim>
				</port>
			</input>
			<output>
				<port id="1" names="activation_21/mul:0" precision="FP32">
					<dim>1</dim>
					<dim>144</dim>
					<dim>1</dim>
					<dim>1</dim>
				</port>
			</output>
		</layer>
		<layer id="310" name="expanded_conv_7/squeeze_excite/Mul/mul" type="Multiply" version="opset1">
			<data auto_broadcast="numpy"/>
			<input>
				<port id="0" precision="FP32">
					<dim>1</dim>
					<dim>144</dim>
					<dim>24</dim>
					<dim>24</dim>
				</port>
				<port id="1" precision="FP32">
					<dim>1</dim>
					<dim>144</dim>
					<dim>1</dim>
					<dim>1</dim>
				</port>
			</input>
			<output>
				<port id="2" names="expanded_conv_7/squeeze_excite/Mul/mul:0" precision="FP32">
					<dim>1</dim>
					<dim>144</dim>
					<dim>24</dim>
					<dim>24</dim>
				</port>
			</output>
		</layer>
		<layer id="311" name="expanded_conv_7/project/BatchNorm/batchnorm/mul_1_copy" type="Const" version="opset1">
			<data element_type="f32" offset="725180" shape="48, 144, 1, 1" size="27648"/>
			<output>
				<port id="0" names="expanded_conv_7/project/Conv2D/ReadVariableOp:0" precision="FP32">
					<dim>48</dim>
					<dim>144</dim>
					<dim>1</dim>
					<dim>1</dim>
				</port>
			</output>
		</layer>
		<layer id="312" name="expanded_conv_7/project/Conv2D" type="Convolution" version="opset1">
			<data auto_pad="same_upper" dilations="1, 1" pads_begin="0, 0" pads_end="0, 0" strides="1, 1"/>
			<input>
				<port id="0" precision="FP32">
					<dim>1</dim>
					<dim>144</dim>
					<dim>24</dim>
					<dim>24</dim>
				</port>
				<port id="1" precision="FP32">
					<dim>48</dim>
					<dim>144</dim>
					<dim>1</dim>
					<dim>1</dim>
				</port>
			</input>
			<output>
				<port id="2" names="expanded_conv_7/project/BatchNorm/batchnorm/mul_1:0" precision="FP32">
					<dim>1</dim>
					<dim>48</dim>
					<dim>24</dim>
					<dim>24</dim>
				</port>
			</output>
		</layer>
		<layer id="313" name="expanded_conv_7/project/BatchNorm/batchnorm/sub" type="Const" version="opset1">
			<data element_type="f32" offset="752828" shape="1, 48, 1, 1" size="192"/>
			<output>
				<port id="0" names="expanded_conv_7/project/BatchNorm/batchnorm/sub:0" precision="FP32">
					<dim>1</dim>
					<dim>48</dim>
					<dim>1</dim>
					<dim>1</dim>
				</port>
			</output>
		</layer>
		<layer id="314" name="expanded_conv_7/project/BatchNorm/batchnorm/add_1" type="Add" version="opset1">
			<data auto_broadcast="numpy"/>
			<input>
				<port id="0" precision="FP32">
					<dim>1</dim>
					<dim>48</dim>
					<dim>24</dim>
					<dim>24</dim>
				</port>
				<port id="1" precision="FP32">
					<dim>1</dim>
					<dim>48</dim>
					<dim>1</dim>
					<dim>1</dim>
				</port>
			</input>
			<output>
				<port id="2" names="expanded_conv_7/project/BatchNorm/batchnorm/add_1:0" precision="FP32">
					<dim>1</dim>
					<dim>48</dim>
					<dim>24</dim>
					<dim>24</dim>
				</port>
			</output>
		</layer>
		<layer id="315" name="expanded_conv_7/Add/add" type="Add" version="opset1">
			<data auto_broadcast="numpy"/>
			<input>
				<port id="0" precision="FP32">
					<dim>1</dim>
					<dim>48</dim>
					<dim>24</dim>
					<dim>24</dim>
				</port>
				<port id="1" precision="FP32">
					<dim>1</dim>
					<dim>48</dim>
					<dim>24</dim>
					<dim>24</dim>
				</port>
			</input>
			<output>
				<port id="2" names="expanded_conv_7/Add/add:0" precision="FP32">
					<dim>1</dim>
					<dim>48</dim>
					<dim>24</dim>
					<dim>24</dim>
				</port>
			</output>
		</layer>
		<layer id="316" name="expanded_conv_8/expand/BatchNorm/batchnorm/mul_1_copy" type="Const" version="opset1">
			<data element_type="f32" offset="753020" shape="288, 48, 1, 1" size="55296"/>
			<output>
				<port id="0" names="expanded_conv_8/expand/Conv2D/ReadVariableOp:0" precision="FP32">
					<dim>288</dim>
					<dim>48</dim>
					<dim>1</dim>
					<dim>1</dim>
				</port>
			</output>
		</layer>
		<layer id="317" name="expanded_conv_8/expand/Conv2D" type="Convolution" version="opset1">
			<data auto_pad="same_upper" dilations="1, 1" pads_begin="0, 0" pads_end="0, 0" strides="1, 1"/>
			<input>
				<port id="0" precision="FP32">
					<dim>1</dim>
					<dim>48</dim>
					<dim>24</dim>
					<dim>24</dim>
				</port>
				<port id="1" precision="FP32">
					<dim>288</dim>
					<dim>48</dim>
					<dim>1</dim>
					<dim>1</dim>
				</port>
			</input>
			<output>
				<port id="2" names="expanded_conv_8/expand/BatchNorm/batchnorm/mul_1:0" precision="FP32">
					<dim>1</dim>
					<dim>288</dim>
					<dim>24</dim>
					<dim>24</dim>
				</port>
			</output>
		</layer>
		<layer id="318" name="expanded_conv_8/expand/BatchNorm/batchnorm/sub" type="Const" version="opset1">
			<data element_type="f32" offset="808316" shape="1, 288, 1, 1" size="1152"/>
			<output>
				<port id="0" names="expanded_conv_8/expand/BatchNorm/batchnorm/sub:0" precision="FP32">
					<dim>1</dim>
					<dim>288</dim>
					<dim>1</dim>
					<dim>1</dim>
				</port>
			</output>
		</layer>
		<layer id="319" name="expanded_conv_8/expand/BatchNorm/batchnorm/add_1" type="Add" version="opset1">
			<data auto_broadcast="numpy"/>
			<input>
				<port id="0" precision="FP32">
					<dim>1</dim>
					<dim>288</dim>
					<dim>24</dim>
					<dim>24</dim>
				</port>
				<port id="1" precision="FP32">
					<dim>1</dim>
					<dim>288</dim>
					<dim>1</dim>
					<dim>1</dim>
				</port>
			</input>
			<output>
				<port id="2" names="expanded_conv_8/expand/BatchNorm/batchnorm/add_1:0" precision="FP32">
					<dim>1</dim>
					<dim>288</dim>
					<dim>24</dim>
					<dim>24</dim>
				</port>
			</output>
		</layer>
		<layer id="320" name="activation_22/activation_11/mul" type="HSigmoid" version="opset5">
			<input>
				<port id="0" precision="FP32">
					<dim>1</dim>
					<dim>288</dim>
					<dim>24</dim>
					<dim>24</dim>
				</port>
			</input>
			<output>
				<port id="1" names="activation_22/activation_11/mul:0" precision="FP32">
					<dim>1</dim>
					<dim>288</dim>
					<dim>24</dim>
					<dim>24</dim>
				</port>
			</output>
		</layer>
		<layer id="321" name="activation_22/multiply_11/mul" type="Multiply" version="opset1">
			<data auto_broadcast="numpy"/>
			<input>
				<port id="0" precision="FP32">
					<dim>1</dim>
					<dim>288</dim>
					<dim>24</dim>
					<dim>24</dim>
				</port>
				<port id="1" precision="FP32">
					<dim>1</dim>
					<dim>288</dim>
					<dim>24</dim>
					<dim>24</dim>
				</port>
			</input>
			<output>
				<port id="2" names="activation_22/multiply_11/mul:0" precision="FP32">
					<dim>1</dim>
					<dim>288</dim>
					<dim>24</dim>
					<dim>24</dim>
				</port>
			</output>
		</layer>
		<layer id="322" name="1490022753" type="Const" version="opset1">
			<data element_type="i64" offset="32" shape="4" size="32"/>
			<output>
				<port id="0" precision="I64">
					<dim>4</dim>
				</port>
			</output>
		</layer>
		<layer id="323" name="1490623164" type="Const" version="opset1">
			<data element_type="i64" offset="50028" shape="4" size="32"/>
			<output>
				<port id="0" precision="I64">
					<dim>4</dim>
				</port>
			</output>
		</layer>
		<layer id="324" name="expanded_conv_8/depthwise/pad/Pad/pad_value_convert_input_port_0/value" type="Const" version="opset1">
			<data element_type="f32" offset="64" shape="" size="4"/>
			<output>
				<port id="0" precision="FP32"/>
			</output>
		</layer>
		<layer id="325" name="expanded_conv_8/depthwise/pad/Pad/pad_value_convert" type="ConvertLike" version="opset1">
			<input>
				<port id="0" precision="FP32"/>
				<port id="1" precision="FP32">
					<dim>1</dim>
					<dim>288</dim>
					<dim>24</dim>
					<dim>24</dim>
				</port>
			</input>
			<output>
				<port id="2" precision="FP32"/>
			</output>
		</layer>
		<layer id="326" name="expanded_conv_8/depthwise/pad/Pad" type="Pad" version="opset1">
			<data pad_mode="constant"/>
			<input>
				<port id="0" precision="FP32">
					<dim>1</dim>
					<dim>288</dim>
					<dim>24</dim>
					<dim>24</dim>
				</port>
				<port id="1" precision="I64">
					<dim>4</dim>
				</port>
				<port id="2" precision="I64">
					<dim>4</dim>
				</port>
				<port id="3" precision="FP32"/>
			</input>
			<output>
				<port id="4" names="expanded_conv_8/depthwise/pad/Pad:0" precision="FP32">
					<dim>1</dim>
					<dim>288</dim>
					<dim>27</dim>
					<dim>27</dim>
				</port>
			</output>
		</layer>
		<layer id="327" name="expanded_conv_8/depthwise/BatchNorm/batchnorm/mul_1_copy" type="Const" version="opset1">
			<data element_type="f32" offset="809468" shape="288, 1, 1, 5, 5" size="28800"/>
			<output>
				<port id="0" names="expanded_conv_8/depthwise/Conv/depthwise/ReadVariableOp:0" precision="FP32">
					<dim>288</dim>
					<dim>1</dim>
					<dim>1</dim>
					<dim>5</dim>
					<dim>5</dim>
				</port>
			</output>
		</layer>
		<layer id="328" name="expanded_conv_8/depthwise/Conv/depthwise" type="GroupConvolution" version="opset1">
			<data auto_pad="valid" dilations="1, 1" pads_begin="0, 0" pads_end="0, 0" strides="2, 2"/>
			<input>
				<port id="0" precision="FP32">
					<dim>1</dim>
					<dim>288</dim>
					<dim>27</dim>
					<dim>27</dim>
				</port>
				<port id="1" precision="FP32">
					<dim>288</dim>
					<dim>1</dim>
					<dim>1</dim>
					<dim>5</dim>
					<dim>5</dim>
				</port>
			</input>
			<output>
				<port id="2" names="expanded_conv_8/depthwise/BatchNorm/batchnorm/mul_1:0" precision="FP32">
					<dim>1</dim>
					<dim>288</dim>
					<dim>12</dim>
					<dim>12</dim>
				</port>
			</output>
		</layer>
		<layer id="329" name="expanded_conv_8/depthwise/BatchNorm/batchnorm/sub" type="Const" version="opset1">
			<data element_type="f32" offset="838268" shape="1, 288, 1, 1" size="1152"/>
			<output>
				<port id="0" names="expanded_conv_8/depthwise/BatchNorm/batchnorm/sub:0" precision="FP32">
					<dim>1</dim>
					<dim>288</dim>
					<dim>1</dim>
					<dim>1</dim>
				</port>
			</output>
		</layer>
		<layer id="330" name="expanded_conv_8/depthwise/BatchNorm/batchnorm/add_1" type="Add" version="opset1">
			<data auto_broadcast="numpy"/>
			<input>
				<port id="0" precision="FP32">
					<dim>1</dim>
					<dim>288</dim>
					<dim>12</dim>
					<dim>12</dim>
				</port>
				<port id="1" precision="FP32">
					<dim>1</dim>
					<dim>288</dim>
					<dim>1</dim>
					<dim>1</dim>
				</port>
			</input>
			<output>
				<port id="2" names="expanded_conv_8/depthwise/BatchNorm/batchnorm/add_1:0" precision="FP32">
					<dim>1</dim>
					<dim>288</dim>
					<dim>12</dim>
					<dim>12</dim>
				</port>
			</output>
		</layer>
		<layer id="331" name="activation_23/activation_12/mul" type="HSigmoid" version="opset5">
…
					<dim>432</dim>
					<dim>24</dim>
					<dim>24</dim>
				</port>
				<port id="1" precision="FP32">
					<dim>75</dim>
					<dim>432</dim>
					<dim>1</dim>
					<dim>1</dim>
				</port>
			</input>
			<output>
				<port id="2" names="predict_conv_2/Conv2D:0" precision="FP32">
					<dim>1</dim>
					<dim>75</dim>
					<dim>24</dim>
					<dim>24</dim>
				</port>
			</output>
		</layer>
		<layer id="546" name="predict_conv_2/BiasAdd/ReadVariableOp" type="Const" version="opset1">
			<data element_type="f32" offset="4341764" shape="1, 75, 1, 1" size="300"/>
			<output>
				<port id="0" names="predict_conv_2/BiasAdd/ReadVariableOp:0" precision="FP32">
					<dim>1</dim>
					<dim>75</dim>
					<dim>1</dim>
					<dim>1</dim>
				</port>
			</output>
		</layer>
		<layer id="547" name="predict_conv_2/BiasAdd/Add" type="Add" version="opset1">
			<data auto_broadcast="numpy"/>
			<input>
				<port id="0" precision="FP32">
					<dim>1</dim>
					<dim>75</dim>
					<dim>24</dim>
					<dim>24</dim>
				</port>
				<port id="1" precision="FP32">
					<dim>1</dim>
					<dim>75</dim>
					<dim>1</dim>
					<dim>1</dim>
				</port>
			</input>
			<output>
				<port id="2" names="predict_conv_2/BiasAdd:0" precision="FP32">
					<dim>1</dim>
					<dim>75</dim>
					<dim>24</dim>
					<dim>24</dim>
				</port>
			</output>
		</layer>
		<layer id="548" name="predict_conv_2/BiasAdd:0" type="Result" version="opset1">
			<input>
				<port id="0" precision="FP32">
					<dim>1</dim>
					<dim>75</dim>
					<dim>24</dim>
					<dim>24</dim>
				</port>
			</input>
		</layer>
		<layer id="549" name="conv_dw_pred_1_3_bn/batchnorm/mul_1/Fused_Mul__copy" type="Const" version="opset1">
			<data element_type="f32" offset="4342064" shape="576, 1, 1, 3, 3" size="20736"/>
			<output>
				<port id="0" names="conv_dw_pred_1_3/depthwise/ReadVariableOp:0" precision="FP32">
					<dim>576</dim>
					<dim>1</dim>
					<dim>1</dim>
					<dim>3</dim>
					<dim>3</dim>
				</port>
			</output>
		</layer>
		<layer id="550" name="conv_dw_pred_1_3/depthwise" type="GroupConvolution" version="opset1">
			<data auto_pad="same_upper" dilations="1, 1" pads_begin="1, 1" pads_end="1, 1" strides="1, 1"/>
			<input>
				<port id="0" precision="FP32">
					<dim>1</dim>
					<dim>576</dim>
					<dim>12</dim>
					<dim>12</dim>
				</port>
				<port id="1" precision="FP32">
					<dim>576</dim>
					<dim>1</dim>
					<dim>1</dim>
					<dim>3</dim>
					<dim>3</dim>
				</port>
			</input>
			<output>
				<port id="2" precision="FP32">
					<dim>1</dim>
					<dim>576</dim>
					<dim>12</dim>
					<dim>12</dim>
				</port>
			</output>
		</layer>
		<layer id="551" name="data_add_1055610561" type="Const" version="opset1">
			<data element_type="f32" offset="4362800" shape="1, 576, 1, 1" size="2304"/>
			<output>
				<port id="0" precision="FP32">
					<dim>1</dim>
					<dim>576</dim>
					<dim>1</dim>
					<dim>1</dim>
				</port>
			</output>
		</layer>
		<layer id="552" name="conv_dw_pred_1_3/BiasAdd/Add/Fused_Add_" type="Add" version="opset1">
			<data auto_broadcast="numpy"/>
			<input>
				<port id="0" precision="FP32">
					<dim>1</dim>
					<dim>576</dim>
					<dim>12</dim>
					<dim>12</dim>
				</port>
				<port id="1" precision="FP32">
					<dim>1</dim>
					<dim>576</dim>
					<dim>1</dim>
					<dim>1</dim>
				</port>
			</input>
			<output>
				<port id="2" names="conv_dw_pred_1_3_bn/batchnorm/add_1:0" precision="FP32">
					<dim>1</dim>
					<dim>576</dim>
					<dim>12</dim>
					<dim>12</dim>
				</port>
			</output>
		</layer>
		<layer id="553" name="conv_dw_pred_1_3_leaky_relu/LeakyRelu/weights1641923005" type="Const" version="opset1">
			<data element_type="f32" offset="3707044" shape="1" size="4"/>
			<output>
				<port id="0" precision="FP32">
					<dim>1</dim>
				</port>
			</output>
		</layer>
		<layer id="554" name="conv_dw_pred_1_3_leaky_relu/LeakyRelu" type="PReLU" version="opset1">
			<input>
				<port id="0" precision="FP32">
					<dim>1</dim>
					<dim>576</dim>
					<dim>12</dim>
					<dim>12</dim>
				</port>
				<port id="1" precision="FP32">
					<dim>1</dim>
				</port>
			</input>
			<output>
				<port id="2" names="conv_dw_pred_1_3_leaky_relu/LeakyRelu:0" precision="FP32">
					<dim>1</dim>
					<dim>576</dim>
					<dim>12</dim>
					<dim>12</dim>
				</port>
			</output>
		</layer>
		<layer id="555" name="predict_conv_1/Conv2D/ReadVariableOp" type="Const" version="opset1">
			<data element_type="f32" offset="4365104" shape="75, 576, 1, 1" size="172800"/>
			<output>
				<port id="0" names="predict_conv_1/Conv2D/ReadVariableOp:0" precision="FP32">
					<dim>75</dim>
					<dim>576</dim>
					<dim>1</dim>
					<dim>1</dim>
				</port>
			</output>
		</layer>
		<layer id="556" name="predict_conv_1/Conv2D" type="Convolution" version="opset1">
			<data auto_pad="same_upper" dilations="1, 1" pads_begin="0, 0" pads_end="0, 0" strides="1, 1"/>
			<input>
				<port id="0" precision="FP32">
					<dim>1</dim>
					<dim>576</dim>
					<dim>12</dim>
					<dim>12</dim>
				</port>
				<port id="1" precision="FP32">
					<dim>75</dim>
					<dim>576</dim>
					<dim>1</dim>
					<dim>1</dim>
				</port>
			</input>
			<output>
				<port id="2" names="predict_conv_1/Conv2D:0" precision="FP32">
					<dim>1</dim>
					<dim>75</dim>
					<dim>12</dim>
					<dim>12</dim>
				</port>
			</output>
		</layer>
		<layer id="557" name="predict_conv_1/BiasAdd/ReadVariableOp" type="Const" version="opset1">
			<data element_type="f32" offset="4537904" shape="1, 75, 1, 1" size="300"/>
			<output>
				<port id="0" names="predict_conv_1/BiasAdd/ReadVariableOp:0" precision="FP32">
					<dim>1</dim>
					<dim>75</dim>
					<dim>1</dim>
					<dim>1</dim>
				</port>
			</output>
		</layer>
		<layer id="558" name="predict_conv_1/BiasAdd/Add" type="Add" version="opset1">
			<data auto_broadcast="numpy"/>
			<input>
				<port id="0" precision="FP32">
					<dim>1</dim>
					<dim>75</dim>
					<dim>12</dim>
					<dim>12</dim>
				</port>
				<port id="1" precision="FP32">
					<dim>1</dim>
					<dim>75</dim>
					<dim>1</dim>
					<dim>1</dim>
				</port>
			</input>
			<output>
				<port id="2" names="predict_conv_1/BiasAdd:0" precision="FP32">
					<dim>1</dim>
					<dim>75</dim>
					<dim>12</dim>
					<dim>12</dim>
				</port>
			</output>
		</layer>
		<layer id="559" name="predict_conv_1/BiasAdd:0" type="Result" version="opset1">
			<input>
				<port id="0" precision="FP32">
					<dim>1</dim>
					<dim>75</dim>
					<dim>12</dim>
					<dim>12</dim>
				</port>
			</input>
		</layer>
	</layers>
	<edges>
		<edge from-layer="0" from-port="0" to-layer="4" to-port="1"/>
		<edge from-layer="0" from-port="0" to-layer="5" to-port="0"/>
		<edge from-layer="1" from-port="0" to-layer="5" to-port="1"/>
		<edge from-layer="2" from-port="0" to-layer="5" to-port="2"/>
		<edge from-layer="3" from-port="0" to-layer="4" to-port="0"/>
		<edge from-layer="4" from-port="2" to-layer="5" to-port="3"/>
		<edge from-layer="5" from-port="4" to-layer="7" to-port="0"/>
		<edge from-layer="6" from-port="0" to-layer="7" to-port="1"/>
		<edge from-layer="7" from-port="2" to-layer="9" to-port="0"/>
		<edge from-layer="8" from-port="0" to-layer="9" to-port="1"/>
		<edge from-layer="9" from-port="2" to-layer="10" to-port="0"/>
		<edge from-layer="9" from-port="2" to-layer="11" to-port="1"/>
		<edge from-layer="10" from-port="1" to-layer="11" to-port="0"/>
		<edge from-layer="11" from-port="2" to-layer="15" to-port="1"/>
		<edge from-layer="11" from-port="2" to-layer="16" to-port="0"/>
		<edge from-layer="12" from-port="0" to-layer="16" to-port="1"/>
		<edge from-layer="13" from-port="0" to-layer="16" to-port="2"/>
		<edge from-layer="14" from-port="0" to-layer="15" to-port="0"/>
		<edge from-layer="15" from-port="2" to-layer="16" to-port="3"/>
		<edge from-layer="16" from-port="4" to-layer="18" to-port="0"/>
		<edge from-layer="17" from-port="0" to-layer="18" to-port="1"/>
		<edge from-layer="18" from-port="2" to-layer="20" to-port="0"/>
		<edge from-layer="19" from-port="0" to-layer="20" to-port="1"/>
		<edge from-layer="20" from-port="2" to-layer="21" to-port="0"/>
		<edge from-layer="21" from-port="1" to-layer="23" to-port="0"/>
		<edge from-layer="21" from-port="1" to-layer="49" to-port="0"/>
		<edge from-layer="22" from-port="0" to-layer="23" to-port="1"/>
		<edge from-layer="23" from-port="2" to-layer="24" to-port="0"/>
		<edge from-layer="23" from-port="2" to-layer="36" to-port="0"/>
		<edge from-layer="24" from-port="1" to-layer="28" to-port="0"/>
		<edge from-layer="25" from-port="0" to-layer="28" to-port="1"/>
		<edge from-layer="26" from-port="0" to-layer="28" to-port="2"/>
		<edge from-layer="27" from-port="0" to-layer="28" to-port="3"/>
		<edge from-layer="28" from-port="4" to-layer="30" to-port="0"/>
		<edge from-layer="29" from-port="0" to-layer="30" to-port="1"/>
		<edge from-layer="30" from-port="2" to-layer="34" to-port="0"/>
		<edge from-layer="31" from-port="0" to-layer="34" to-port="1"/>
		<edge from-layer="32" from-port="0" to-layer="34" to-port="2"/>
		<edge from-layer="33" from-port="0" to-layer="34" to-port="3"/>
		<edge from-layer="34" from-port="4" to-layer="35" to-port="0"/>
		<edge from-layer="35" from-port="1" to-layer="36" to-port="1"/>
		<edge from-layer="36" from-port="2" to-layer="38" to-port="0"/>
		<edge from-layer="37" from-port="0" to-layer="38" to-port="1"/>
		<edge from-layer="38" from-port="2" to-layer="40" to-port="0"/>
		<edge from-layer="39" from-port="0" to-layer="40" to-port="1"/>
		<edge from-layer="40" from-port="2" to-layer="42" to-port="0"/>
		<edge from-layer="41" from-port="0" to-layer="42" to-port="1"/>
		<edge from-layer="42" from-port="2" to-layer="43" to-port="0"/>
		<edge from-layer="43" from-port="1" to-layer="45" to-port="0"/>
		<edge from-layer="44" from-port="0" to-layer="45" to-port="1"/>
		<edge from-layer="45" from-port="2" to-layer="47" to-port="0"/>
		<edge from-layer="46" from-port="0" to-layer="47" to-port="1"/>
		<edge from-layer="47" from-port="2" to-layer="48" to-port="0"/>
		<edge from-layer="48" from-port="1" to-layer="49" to-port="1"/>
		<edge from-layer="49" from-port="2" to-layer="51" to-port="0"/>
		<edge from-layer="50" from-port="0" to-layer="51" to-port="1"/>
		<edge from-layer="51" from-port="2" to-layer="53" to-port="0"/>
		<edge from-layer="52" from-port="0" to-layer="53" to-port="1"/>
		<edge from-layer="53" from-port="2" to-layer="55" to-port="0"/>
		<edge from-layer="54" from-port="0" to-layer="55" to-port="1"/>
		<edge from-layer="55" from-port="2" to-layer="57" to-port="0"/>
		<edge from-layer="56" from-port="0" to-layer="57" to-port="1"/>
		<edge from-layer="57" from-port="2" to-layer="58" to-port="0"/>
		<edge from-layer="58" from-port="1" to-layer="62" to-port="1"/>
		<edge from-layer="58" from-port="1" to-layer="63" to-port="0"/>
		<edge from-layer="59" from-port="0" to-layer="63" to-port="1"/>
		<edge from-layer="60" from-port="0" to-layer="63" to-port="2"/>
		<edge from-layer="61" from-port="0" to-layer="62" to-port="0"/>
		<edge from-layer="62" from-port="2" to-layer="63" to-port="3"/>
		<edge from-layer="63" from-port="4" to-layer="65" to-port="0"/>
		<edge from-layer="64" from-port="0" to-layer="65" to-port="1"/>
		<edge from-layer="65" from-port="2" to-layer="67" to-port="0"/>
		<edge from-layer="66" from-port="0" to-layer="67" to-port="1"/>
		<edge from-layer="67" from-port="2" to-layer="68" to-port="0"/>
		<edge from-layer="68" from-port="1" to-layer="70" to-port="0"/>
		<edge from-layer="69" from-port="0" to-layer="70" to-port="1"/>
		<edge from-layer="70" from-port="2" to-layer="72" to-port="0"/>
		<edge from-layer="71" from-port="0" to-layer="72" to-port="1"/>
		<edge from-layer="72" from-port="2" to-layer="74" to-port="0"/>
		<edge from-layer="72" from-port="2" to-layer="87" to-port="0"/>
		<edge from-layer="73" from-port="0" to-layer="74" to-port="1"/>
		<edge from-layer="74" from-port="2" to-layer="76" to-port="0"/>
		<edge from-layer="75" from-port="0" to-layer="76" to-port="1"/>
		<edge from-layer="76" from-port="2" to-layer="77" to-port="0"/>
		<edge from-layer="77" from-port="1" to-layer="79" to-port="0"/>
		<edge from-layer="78" from-port="0" to-layer="79" to-port="1"/>
		<edge from-layer="79" from-port="2" to-layer="81" to-port="0"/>
		<edge from-layer="80" from-port="0" to-layer="81" to-port="1"/>
		<edge from-layer="81" from-port="2" to-layer="82" to-port="0"/>
		<edge from-layer="82" from-port="1" to-layer="84" to-port="0"/>
		<edge from-layer="83" from-port="0" to-layer="84" to-port="1"/>
		<edge from-layer="84" from-port="2" to-layer="86" to-port="0"/>
		<edge from-layer="85" from-port="0" to-layer="86" to-port="1"/>
		<edge from-layer="86" from-port="2" to-layer="87" to-port="1"/>
		<edge from-layer="87" from-port="2" to-layer="89" to-port="0"/>
		<edge from-layer="88" from-port="0" to-layer="89" to-port="1"/>
		<edge from-layer="89" from-port="2" to-layer="91" to-port="0"/>
		<edge from-layer="90" from-port="0" to-layer="91" to-port="1"/>
		<edge from-layer="91" from-port="2" to-layer="92" to-port="0"/>
		<edge from-layer="91" from-port="2" to-layer="93" to-port="1"/>
		<edge from-layer="92" from-port="1" to-layer="93" to-port="0"/>
		<edge from-layer="93" from-port="2" to-layer="97" to-port="1"/>
		<edge from-layer="93" from-port="2" to-layer="98" to-port="0"/>
		<edge from-layer="93" from-port="2" to-layer="503" to-port="0"/>
		<edge from-layer="93" from-port="2" to-layer="520" to-port="1"/>
		<edge from-layer="94" from-port="0" to-layer="98" to-port="1"/>
		<edge from-layer="95" from-port="0" to-layer="98" to-port="2"/>
		<edge from-layer="96" from-port="0" to-layer="97" to-port="0"/>
		<edge from-layer="97" from-port="2" to-layer="98" to-port="3"/>
		<edge from-layer="98" from-port="4" to-layer="100" to-port="0"/>
		<edge from-layer="99" from-port="0" to-layer="100" to-port="1"/>
		<edge from-layer="100" from-port="2" to-layer="102" to-port="0"/>
		<edge from-layer="101" from-port="0" to-layer="102" to-port="1"/>
		<edge from-layer="102" from-port="2" to-layer="103" to-port="0"/>
		<edge from-layer="102" from-port="2" to-layer="104" to-port="1"/>
		<edge from-layer="103" from-port="1" to-layer="104" to-port="0"/>
		<edge from-layer="104" from-port="2" to-layer="106" to-port="0"/>
		<edge from-layer="104" from-port="2" to-layer="132" to-port="0"/>
		<edge from-layer="105" from-port="0" to-layer="106" to-port="1"/>
		<edge from-layer="106" from-port="2" to-layer="119" to-port="0"/>
		<edge from-layer="106" from-port="2" to-layer="107" to-port="0"/>
		<edge from-layer="107" from-port="1" to-layer="111" to-port="0"/>
		<edge from-layer="108" from-port="0" to-layer="111" to-port="1"/>
		<edge from-layer="109" from-port="0" to-layer="111" to-port="2"/>
		<edge from-layer="110" from-port="0" to-layer="111" to-port="3"/>
		<edge from-layer="111" from-port="4" to-layer="113" to-port="0"/>
		<edge from-layer="112" from-port="0" to-layer="113" to-port="1"/>
		<edge from-layer="113" from-port="2" to-layer="117" to-port="0"/>
		<edge from-layer="114" from-port="0" to-layer="117" to-port="1"/>
		<edge from-layer="115" from-port="0" to-layer="117" to-port="2"/>
		<edge from-layer="116" from-port="0" to-layer="117" to-port="3"/>
		<edge from-layer="117" from-port="4" to-layer="118" to-port="0"/>
		<edge from-layer="118" from-port="1" to-layer="119" to-port="1"/>
		<edge from-layer="119" from-port="2" to-layer="121" to-port="0"/>
		<edge from-layer="120" from-port="0" to-layer="121" to-port="1"/>
		<edge from-layer="121" from-port="2" to-layer="123" to-port="0"/>
		<edge from-layer="122" from-port="0" to-layer="123" to-port="1"/>
		<edge from-layer="123" from-port="2" to-layer="125" to-port="0"/>
		<edge from-layer="124" from-port="0" to-layer="125" to-port="1"/>
		<edge from-layer="125" from-port="2" to-layer="126" to-port="0"/>
		<edge from-layer="126" from-port="1" to-layer="128" to-port="0"/>
		<edge from-layer="127" from-port="0" to-layer="128" to-port="1"/>
		<edge from-layer="128" from-port="2" to-layer="130" to-port="0"/>
		<edge from-layer="129" from-port="0" to-layer="130" to-port="1"/>
		<edge from-layer="130" from-port="2" to-layer="131" to-port="0"/>
		<edge from-layer="131" from-port="1" to-layer="132" to-port="1"/>
		<edge from-layer="132" from-port="2" to-layer="134" to-port="0"/>
		<edge from-layer="133" from-port="0" to-layer="134" to-port="1"/>
		<edge from-layer="134" from-port="2" to-layer="136" to-port="0"/>
		<edge from-layer="135" from-port="0" to-layer="136" to-port="1"/>
		<edge from-layer="136" from-port="2" to-layer="138" to-port="0"/>
		<edge from-layer="136" from-port="2" to-layer="181" to-port="0"/>
		<edge from-layer="137" from-port="0" to-layer="138" to-port="1"/>
		<edge from-layer="138" from-port="2" to-layer="140" to-port="0"/>
		<edge from-layer="139" from-port="0" to-layer="140" to-port="1"/>
		<edge from-layer="140" from-port="2" to-layer="141" to-port="0"/>
		<edge from-layer="140" from-port="2" to-layer="142" to-port="1"/>
		<edge from-layer="141" from-port="1" to-layer="142" to-port="0"/>
		<edge from-layer="142" from-port="2" to-layer="144" to-port="0"/>
		<edge from-layer="143" from-port="0" to-layer="144" to-port="1"/>
		<edge from-layer="144" from-port="2" to-layer="146" to-port="0"/>
		<edge from-layer="145" from-port="0" to-layer="146" to-port="1"/>
		<edge from-layer="146" from-port="2" to-layer="147" to-port="0"/>
		<edge from-layer="146" from-port="2" to-layer="148" to-port="1"/>
		<edge from-layer="147" from-port="1" to-layer="148" to-port="0"/>
		<edge from-layer="148" from-port="2" to-layer="150" to-port="0"/>
		<edge from-layer="148" from-port="2" to-layer="176" to-port="0"/>
		<edge from-layer="149" from-port="0" to-layer="150" to-port="1"/>
		<edge from-layer="150" from-port="2" to-layer="151" to-port="0"/>
		<edge from-layer="150" from-port="2" to-layer="163" to-port="0"/>
		<edge from-layer="151" from-port="1" to-layer="155" to-port="0"/>
		<edge from-layer="152" from-port="0" to-layer="155" to-port="1"/>
		<edge from-layer="153" from-port="0" to-layer="155" to-port="2"/>
		<edge from-layer="154" from-port="0" to-layer="155" to-port="3"/>
		<edge from-layer="155" from-port="4" to-layer="157" to-port="0"/>
		<edge from-layer="156" from-port="0" to-layer="157" to-port="1"/>
		<edge from-layer="157" from-port="2" to-layer="161" to-port="0"/>
		<edge from-layer="158" from-port="0" to-layer="161" to-port="1"/>
		<edge from-layer="159" from-port="0" to-layer="161" to-port="2"/>
		<edge from-layer="160" from-port="0" to-layer="161" to-port="3"/>
		<edge from-layer="161" from-port="4" to-layer="162" to-port="0"/>
		<edge from-layer="162" from-port="1" to-layer="163" to-port="1"/>
		<edge from-layer="163" from-port="2" to-layer="165" to-port="0"/>
		<edge from-layer="164" from-port="0" to-layer="165" to-port="1"/>
		<edge from-layer="165" from-port="2" to-layer="167" to-port="0"/>
		<edge from-layer="166" from-port="0" to-layer="167" to-port="1"/>
		<edge from-layer="167" from-port="2" to-layer="169" to-port="0"/>
		<edge from-layer="168" from-port="0" to-layer="169" to-port="1"/>
		<edge from-layer="169" from-port="2" to-layer="170" to-port="0"/>
		<edge from-layer="170" from-port="1" to-layer="172" to-port="0"/>
		<edge from-layer="171" from-port="0" to-layer="172" to-port="1"/>
		<edge from-layer="172" from-port="2" to-layer="174" to-port="0"/>
		<edge from-layer="173" from-port="0" to-layer="174" to-port="1"/>
		<edge from-layer="174" from-port="2" to-layer="175" to-port="0"/>
		<edge from-layer="175" from-port="1" to-layer="176" to-port="1"/>
		<edge from-layer="176" from-port="2" to-layer="178" to-port="0"/>
		<edge from-layer="177" from-port="0" to-layer="178" to-port="1"/>
		<edge from-layer="178" from-port="2" to-layer="180" to-port="0"/>
		<edge from-layer="179" from-port="0" to-layer="180" to-port="1"/>
		<edge from-layer="180" from-port="2" to-layer="181" to-port="1"/>
		<edge from-layer="181" from-port="2" to-layer="183" to-port="0"/>
		<edge from-layer="181" from-port="2" to-layer="226" to-port="0"/>
		<edge from-layer="182" from-port="0" to-layer="183" to-port="1"/>
		<edge from-layer="183" from-port="2" to-layer="185" to-port="0"/>
		<edge from-layer="184" from-port="0" to-layer="185" to-port="1"/>
		<edge from-layer="185" from-port="2" to-layer="186" to-port="0"/>
		<edge from-layer="185" from-port="2" to-layer="187" to-port="1"/>
		<edge from-layer="186" from-port="1" to-layer="187" to-port="0"/>
		<edge from-layer="187" from-port="2" to-layer="189" to-port="0"/>
		<edge from-layer="188" from-port="0" to-layer="189" to-port="1"/>
		<edge from-layer="189" from-port="2" to-layer="191" to-port="0"/>
		<edge from-layer="190" from-port="0" to-layer="191" to-port="1"/>
		<edge from-layer="191" from-port="2" to-layer="192" to-port="0"/>
		<edge from-layer="191" from-port="2" to-layer="193" to-port="1"/>
		<edge from-layer="192" from-port="1" to-layer="193" to-port="0"/>
		<edge from-layer="193" from-port="2" to-layer="195" to-port="0"/>
		<edge from-layer="193" from-port="2" to-layer="221" to-port="0"/>
		<edge from-layer="194" from-port="0" to-layer="195" to-port="1"/>
		<edge from-layer="195" from-port="2" to-layer="196" to-port="0"/>
		<edge from-layer="195" from-port="2" to-layer="208" to-port="0"/>
		<edge from-layer="196" from-port="1" to-layer="200" to-port="0"/>
		<edge from-layer="197" from-port="0" to-layer="200" to-port="1"/>
		<edge from-layer="198" from-port="0" to-layer="200" to-port="2"/>
		<edge from-layer="199" from-port="0" to-layer="200" to-port="3"/>
		<edge from-layer="200" from-port="4" to-layer="202" to-port="0"/>
		<edge from-layer="201" from-port="0" to-layer="202" to-port="1"/>
		<edge from-layer="202" from-port="2" to-layer="206" to-port="0"/>
		<edge from-layer="203" from-port="0" to-layer="206" to-port="1"/>
		<edge from-layer="204" from-port="0" to-layer="206" to-port="2"/>
		<edge from-layer="205" from-port="0" to-layer="206" to-port="3"/>
		<edge from-layer="206" from-port="4" to-layer="207" to-port="0"/>
		<edge from-layer="207" from-port="1" to-layer="208" to-port="1"/>
		<edge from-layer="208" from-port="2" to-layer="210" to-port="0"/>
		<edge from-layer="209" from-port="0" to-layer="210" to-port="1"/>
		<edge from-layer="210" from-port="2" to-layer="212" to-port="0"/>
		<edge from-layer="211" from-port="0" to-layer="212" to-port="1"/>
		<edge from-layer="212" from-port="2" to-layer="214" to-port="0"/>
		<edge from-layer="213" from-port="0" to-layer="214" to-port="1"/>
		<edge from-layer="214" from-port="2" to-layer="215" to-port="0"/>
		<edge from-layer="215" from-port="1" to-layer="217" to-port="0"/>
		<edge from-layer="216" from-port="0" to-layer="217" to-port="1"/>
		<edge from-layer="217" from-port="2" to-layer="219" to-port="0"/>
		<edge from-layer="218" from-port="0" to-layer="219" to-port="1"/>
		<edge from-layer="219" from-port="2" to-layer="220" to-port="0"/>
		<edge from-layer="220" from-port="1" to-layer="221" to-port="1"/>
		<edge from-layer="221" from-port="2" to-layer="223" to-port="0"/>
		<edge from-layer="222" from-port="0" to-layer="223" to-port="1"/>
		<edge from-layer="223" from-port="2" to-layer="225" to-port="0"/>
		<edge from-layer="224" from-port="0" to-layer="225" to-port="1"/>
		<edge from-layer="225" from-port="2" to-layer="226" to-port="1"/>
		<edge from-layer="226" from-port="2" to-layer="228" to-port="0"/>
		<edge from-layer="227" from-port="0" to-layer="228" to-port="1"/>
		<edge from-layer="228" from-port="2" to-layer="230" to-port="0"/>
		<edge from-layer="229" from-port="0" to-layer="230" to-port="1"/>
		<edge from-layer="230" from-port="2" to-layer="231" to-port="0"/>
		<edge from-layer="230" from-port="2" to-layer="232" to-port="1"/>
		<edge from-layer="231" from-port="1" to-layer="232" to-port="0"/>
		<edge from-layer="232" from-port="2" to-layer="234" to-port="0"/>
		<edge from-layer="233" from-port="0" to-layer="234" to-port="1"/>
		<edge from-layer="234" from-port="2" to-layer="236" to-port="0"/>
		<edge from-layer="235" from-port="0" to-layer="236" to-port="1"/>
		<edge from-layer="236" from-port="2" to-layer="238" to-port="1"/>
		<edge from-layer="236" from-port="2" to-layer="237" to-port="0"/>
		<edge from-layer="237" from-port="1" to-layer="238" to-port="0"/>
		<edge from-layer="238" from-port="2" to-layer="240" to-port="0"/>
		<edge from-layer="238" from-port="2" to-layer="266" to-port="0"/>
		<edge from-layer="239" from-port="0" to-layer="240" to-port="1"/>
		<edge from-layer="240" from-port="2" to-layer="241" to-port="0"/>
		<edge from-layer="240" from-port="2" to-layer="253" to-port="0"/>
		<edge from-layer="241" from-port="1" to-layer="245" to-port="0"/>
		<edge from-layer="242" from-port="0" to-layer="245" to-port="1"/>
		<edge from-layer="243" from-port="0" to-layer="245" to-port="2"/>
		<edge from-layer="244" from-port="0" to-layer="245" to-port="3"/>
		<edge from-layer="245" from-port="4" to-layer="247" to-port="0"/>
		<edge from-layer="246" from-port="0" to-layer="247" to-port="1"/>
		<edge from-layer="247" from-port="2" to-layer="251" to-port="0"/>
		<edge from-layer="248" from-port="0" to-layer="251" to-port="1"/>
		<edge from-layer="249" from-port="0" to-layer="251" to-port="2"/>
		<edge from-layer="250" from-port="0" to-layer="251" to-port="3"/>
		<edge from-layer="251" from-port="4" to-layer="252" to-port="0"/>
		<edge from-layer="252" from-port="1" to-layer="253" to-port="1"/>
		<edge from-layer="253" from-port="2" to-layer="255" to-port="0"/>
		<edge from-layer="254" from-port="0" to-layer="255" to-port="1"/>
		<edge from-layer="255" from-port="2" to-layer="257" to-port="0"/>
		<edge from-layer="256" from-port="0" to-layer="257" to-port="1"/>
		<edge from-layer="257" from-port="2" to-layer="259" to-port="0"/>
		<edge from-layer="258" from-port="0" to-layer="259" to-port="1"/>
		<edge from-layer="259" from-port="2" to-layer="260" to-port="0"/>
		<edge from-layer="260" from-port="1" to-layer="262" to-port="0"/>
		<edge from-layer="261" from-port="0" to-layer="262" to-port="1"/>
		<edge from-layer="262" from-port="2" to-layer="264" to-port="0"/>
		<edge from-layer="263" from-port="0" to-layer="264" to-port="1"/>
		<edge from-layer="264" from-port="2" to-layer="265" to-port="0"/>
		<edge from-layer="265" from-port="1" to-layer="266" to-port="1"/>
		<edge from-layer="266" from-port="2" to-layer="268" to-port="0"/>
		<edge from-layer="267" from-port="0" to-layer="268" to-port="1"/>
		<edge from-layer="268" from-port="2" to-layer="270" to-port="0"/>
		<edge from-layer="269" from-port="0" to-layer="270" to-port="1"/>
		<edge from-layer="270" from-port="2" to-layer="272" to-port="0"/>
		<edge from-layer="270" from-port="2" to-layer="315" to-port="0"/>
		<edge from-layer="271" from-port="0" to-layer="272" to-port="1"/>
		<edge from-layer="272" from-port="2" to-layer="274" to-port="0"/>
		<edge from-layer="273" from-port="0" to-layer="274" to-port="1"/>
		<edge from-layer="274" from-port="2" to-layer="276" to-port="1"/>
		<edge from-layer="274" from-port="2" to-layer="275" to-port="0"/>
		<edge from-layer="275" from-port="1" to-layer="276" to-port="0"/>
		<edge from-layer="276" from-port="2" to-layer="278" to-port="0"/>
		<edge from-layer="277" from-port="0" to-layer="278" to-port="1"/>
		<edge from-layer="278" from-port="2" to-layer="280" to-port="0"/>
		<edge from-layer="279" from-port="0" to-layer="280" to-port="1"/>
		<edge from-layer="280" from-port="2" to-layer="281" to-port="0"/>
		<edge from-layer="280" from-port="2" to-layer="282" to-port="1"/>
		<edge from-layer="281" from-port="1" to-layer="282" to-port="0"/>
		<edge from-layer="282" from-port="2" to-layer="310" to-port="0"/>
		<edge from-layer="282" from-port="2" to-layer="284" to-port="0"/>
		<edge from-layer="283" from-port="0" to-layer="284" to-port="1"/>
		<edge from-layer="284" from-port="2" to-layer="285" to-port="0"/>
		<edge from-layer="284" from-port="2" to-layer="297" to-port="0"/>
		<edge from-layer="285" from-port="1" to-layer="289" to-port="0"/>
		<edge from-layer="286" from-port="0" to-layer="289" to-port="1"/>
		<edge from-layer="287" from-port="0" to-layer="289" to-port="2"/>
		<edge from-layer="288" from-port="0" to-layer="289" to-port="3"/>
		<edge from-layer="289" from-port="4" to-layer="291" to-port="0"/>
		<edge from-layer="290" from-port="0" to-layer="291" to-port="1"/>
		<edge from-layer="291" from-port="2" to-layer="295" to-port="0"/>
		<edge from-layer="292" from-port="0" to-layer="295" to-port="1"/>
		<edge from-layer="293" from-port="0" to-layer="295" to-port="2"/>
		<edge from-layer="294" from-port="0" to-layer="295" to-port="3"/>
		<edge from-layer="295" from-port="4" to-layer="296" to-port="0"/>
		<edge from-layer="296" from-port="1" to-layer="297" to-port="1"/>
		<edge from-layer="297" from-port="2" to-layer="299" to-port="0"/>
		<edge from-layer="298" from-port="0" to-layer="299" to-port="1"/>
		<edge from-layer="299" from-port="2" to-layer="301" to-port="0"/>
		<edge from-layer="300" from-port="0" to-layer="301" to-port="1"/>
		<edge from-layer="301" from-port="2" to-layer="303" to-port="0"/>
		<edge from-layer="302" from-port="0" to-layer="303" to-port="1"/>
		<edge from-layer="303" from-port="2" to-layer="304" to-port="0"/>
		<edge from-layer="304" from-port="1" to-layer="306" to-port="0"/>
		<edge from-layer="305" from-port="0" to-layer="306" to-port="1"/>
		<edge from-layer="306" from-port="2" to-layer="308" to-port="0"/>
		<edge from-layer="307" from-port="0" to-layer="308" to-port="1"/>
		<edge from-layer="308" from-port="2" to-layer="309" to-port="0"/>
		<edge from-layer="309" from-port="1" to-layer="310" to-port="1"/>
		<edge from-layer="310" from-port="2" to-layer="312" to-port="0"/>
		<edge from-layer="311" from-port="0" to-layer="312" to-port="1"/>
		<edge from-layer="312" from-port="2" to-layer="314" to-port="0"/>
		<edge from-layer="313" from-port="0" to-layer="314" to-port="1"/>
		<edge from-layer="314" from-port="2" to-layer="315" to-port="1"/>
		<edge from-layer="315" from-port="2" to-layer="317" to-port="0"/>
		<edge from-layer="316" from-port="0" to-layer="317" to-port="1"/>
		<edge from-layer="317" from-port="2" to-layer="319" to-port="0"/>
		<edge from-layer="318" from-port="0" to-layer="319" to-port="1"/>
		<edge from-layer="319" from-port="2" to-layer="321" to-port="1"/>
		<edge from-layer="319" from-port="2" to-layer="320" to-port="0"/>
		<edge from-layer="320" from-port="1" to-layer="321" to-port="0"/>
		<edge from-layer="321" from-port="2" to-layer="325" to-port="1"/>
		<edge from-layer="321" from-port="2" to-layer="326" to-port="0"/>
		<edge from-layer="321" from-port="2" to-layer="473" to-port="0"/>
		<edge from-layer="321" from-port="2" to-layer="490" to-port="1"/>
		<edge from-layer="322" from-port="0" to-layer="326" to-port="1"/>
		<edge from-layer="323" from-port="0" to-layer="326" to-port="2"/>
		<edge from-layer="324" from-port="0" to-layer="325" to-port="0"/>
		<edge from-layer="325" from-port="2" to-layer="326" to-port="3"/>
		<edge from-layer="326" from-port="4" to-layer="328" to-port="0"/>
		<edge from-layer="327" from-port="0" to-layer="328" to-port="1"/>
		<edge from-layer="328" from-port="2" to-layer="330" to-port="0"/>
		<edge from-layer="329" from-port="0" to-layer="330" to-port="1"/>
		<edge from-layer="330" from-port="2" to-layer="331" to-port="0"/>
		<edge from-layer="330" from-port="2" to-layer="332" to-port="1"/>
		<edge from-layer="331" from-port="1" to-layer="332" to-port="0"/>
		<edge from-layer="332" from-port="2" to-layer="334" to-port="0"/>
		<edge from-layer="332" from-port="2" to-layer="360" to-port="0"/>
		<edge from-layer="333" from-port="0" to-layer="334" to-port="1"/>
		<edge from-layer="334" from-port="2" to-layer="335" to-port="0"/>
		<edge from-layer="334" from-port="2" to-layer="347" to-port="0"/>
		<edge from-layer="335" from-port="1" to-layer="339" to-port="0"/>
		<edge from-layer="336" from-port="0" to-layer="339" to-port="1"/>
		<edge from-layer="337" from-port="0" to-layer="339" to-port="2"/>
		<edge from-layer="338" from-port="0" to-layer="339" to-port="3"/>
		<edge from-layer="339" from-port="4" to-layer="341" to-port="0"/>
		<edge from-layer="340" from-port="0" to-layer="341" to-port="1"/>
		<edge from-layer="341" from-port="2" to-layer="345" to-port="0"/>
		<edge from-layer="342" from-port="0" to-layer="345" to-port="1"/>
		<edge from-layer="343" from-port="0" to-layer="345" to-port="2"/>
		<edge from-layer="344" from-port="0" to-layer="345" to-port="3"/>
		<edge from-layer="345" from-port="4" to-layer="346" to-port="0"/>
		<edge from-layer="346" from-port="1" to-layer="347" to-port="1"/>
		<edge from-layer="347" from-port="2" to-layer="349" to-port="0"/>
		<edge from-layer="348" from-port="0" to-layer="349" to-port="1"/>
		<edge from-layer="349" from-port="2" to-layer="351" to-port="0"/>
		<edge from-layer="350" from-port="0" to-layer="351" to-port="1"/>
		<edge from-layer="351" from-port="2" to-layer="353" to-port="0"/>
		<edge from-layer="352" from-port="0" to-layer="353" to-port="1"/>
		<edge from-layer="353" from-port="2" to-layer="354" to-port="0"/>
		<edge from-layer="354" from-port="1" to-layer="356" to-port="0"/>
		<edge from-layer="355" from-port="0" to-layer="356" to-port="1"/>
		<edge from-layer="356" from-port="2" to-layer="358" to-port="0"/>
		<edge from-layer="357" from-port="0" to-layer="358" to-port="1"/>
		<edge from-layer="358" from-port="2" to-layer="359" to-port="0"/>
		<edge from-layer="359" from-port="1" to-layer="360" to-port="1"/>
		<edge from-layer="360" from-port="2" to-layer="362" to-port="0"/>
		<edge from-layer="361" from-port="0" to-layer="362" to-port="1"/>
		<edge from-layer="362" from-port="2" to-layer="364" to-port="0"/>
		<edge from-layer="363" from-port="0" to-layer="364" to-port="1"/>
		<edge from-layer="364" from-port="2" to-layer="366" to-port="0"/>
		<edge from-layer="364" from-port="2" to-layer="409" to-port="0"/>
		<edge from-layer="365" from-port="0" to-layer="366" to-port="1"/>
		<edge from-layer="366" from-port="2" to-layer="368" to-port="0"/>
		<edge from-layer="367" from-port="0" to-layer="368" to-port="1"/>
		<edge from-layer="368" from-port="2" to-layer="369" to-port="0"/>
		<edge from-layer="368" from-port="2" to-layer="370" to-port="1"/>
		<edge from-layer="369" from-port="1" to-layer="370" to-port="0"/>
		<edge from-layer="370" from-port="2" to-layer="372" to-port="0"/>
		<edge from-layer="371" from-port="0" to-layer="372" to-port="1"/>
		<edge from-layer="372" from-port="2" to-layer="374" to-port="0"/>
		<edge from-layer="373" from-port="0" to-layer="374" to-port="1"/>
		<edge from-layer="374" from-port="2" to-layer="376" to-port="1"/>
		<edge from-layer="374" from-port="2" to-layer="375" to-port="0"/>
		<edge from-layer="375" from-port="1" to-layer="376" to-port="0"/>
		<edge from-layer="376" from-port="2" to-layer="378" to-port="0"/>
		<edge from-layer="376" from-port="2" to-layer="404" to-port="0"/>
		<edge from-layer="377" from-port="0" to-layer="378" to-port="1"/>
		<edge from-layer="378" from-port="2" to-layer="379" to-port="0"/>
		<edge from-layer="378" from-port="2" to-layer="391" to-port="0"/>
		<edge from-layer="379" from-port="1" to-layer="383" to-port="0"/>
		<edge from-layer="380" from-port="0" to-layer="383" to-port="1"/>
		<edge from-layer="381" from-port="0" to-layer="383" to-port="2"/>
		<edge from-layer="382" from-port="0" to-layer="383" to-port="3"/>
		<edge from-layer="383" from-port="4" to-layer="385" to-port="0"/>
		<edge from-layer="384" from-port="0" to-layer="385" to-port="1"/>
		<edge from-layer="385" from-port="2" to-layer="389" to-port="0"/>
		<edge from-layer="386" from-port="0" to-layer="389" to-port="1"/>
		<edge from-layer="387" from-port="0" to-layer="389" to-port="2"/>
		<edge from-layer="388" from-port="0" to-layer="389" to-port="3"/>
		<edge from-layer="389" from-port="4" to-layer="390" to-port="0"/>
		<edge from-layer="390" from-port="1" to-layer="391" to-port="1"/>
		<edge from-layer="391" from-port="2" to-layer="393" to-port="0"/>
		<edge from-layer="392" from-port="0" to-layer="393" to-port="1"/>
		<edge from-layer="393" from-port="2" to-layer="395" to-port="0"/>
		<edge from-layer="394" from-port="0" to-layer="395" to-port="1"/>
		<edge from-layer="395" from-port="2" to-layer="397" to-port="0"/>
		<edge from-layer="396" from-port="0" to-layer="397" to-port="1"/>
		<edge from-layer="397" from-port="2" to-layer="398" to-port="0"/>
		<edge from-layer="398" from-port="1" to-layer="400" to-port="0"/>
		<edge from-layer="399" from-port="0" to-layer="400" to-port="1"/>
		<edge from-layer="400" from-port="2" to-layer="402" to-port="0"/>
		<edge from-layer="401" from-port="0" to-layer="402" to-port="1"/>
		<edge from-layer="402" from-port="2" to-layer="403" to-port="0"/>
		<edge from-layer="403" from-port="1" to-layer="404" to-port="1"/>
		<edge from-layer="404" from-port="2" to-layer="406" to-port="0"/>
		<edge from-layer="405" from-port="0" to-layer="406" to-port="1"/>
		<edge from-layer="406" from-port="2" to-layer="408" to-port="0"/>
		<edge from-layer="407" from-port="0" to-layer="408" to-port="1"/>
		<edge from-layer="408" from-port="2" to-layer="409" to-port="1"/>
		<edge from-layer="409" from-port="2" to-layer="411" to-port="0"/>
		<edge from-layer="409" from-port="2" to-layer="454" to-port="0"/>
		<edge from-layer="410" from-port="0" to-layer="411" to-port="1"/>
		<edge from-layer="411" from-port="2" to-layer="413" to-port="0"/>
		<edge from-layer="412" from-port="0" to-layer="413" to-port="1"/>
		<edge from-layer="413" from-port="2" to-layer="414" to-port="0"/>
		<edge from-layer="413" from-port="2" to-layer="415" to-port="1"/>
		<edge from-layer="414" from-port="1" to-layer="415" to-port="0"/>
		<edge from-layer="415" from-port="2" to-layer="417" to-port="0"/>
		<edge from-layer="416" from-port="0" to-layer="417" to-port="1"/>
		<edge from-layer="417" from-port="2" to-layer="419" to-port="0"/>
		<edge from-layer="418" from-port="0" to-layer="419" to-port="1"/>
		<edge from-layer="419" from-port="2" to-layer="421" to-port="1"/>
		<edge from-layer="419" from-port="2" to-layer="420" to-port="0"/>
		<edge from-layer="420" from-port="1" to-layer="421" to-port="0"/>
		<edge from-layer="421" from-port="2" to-layer="423" to-port="0"/>
		<edge from-layer="421" from-port="2" to-layer="449" to-port="0"/>
		<edge from-layer="422" from-port="0" to-layer="423" to-port="1"/>
		<edge from-layer="423" from-port="2" to-layer="424" to-port="0"/>
		<edge from-layer="423" from-port="2" to-layer="436" to-port="0"/>
		<edge from-layer="424" from-port="1" to-layer="428" to-port="0"/>
		<edge from-layer="425" from-port="0" to-layer="428" to-port="1"/>
		<edge from-layer="426" from-port="0" to-layer="428" to-port="2"/>
		<edge from-layer="427" from-port="0" to-layer="428" to-port="3"/>
		<edge from-layer="428" from-port="4" to-layer="430" to-port="0"/>
		<edge from-layer="429" from-port="0" to-layer="430" to-port="1"/>
		<edge from-layer="430" from-port="2" to-layer="434" to-port="0"/>
		<edge from-layer="431" from-port="0" to-layer="434" to-port="1"/>
		<edge from-layer="432" from-port="0" to-layer="434" to-port="2"/>
		<edge from-layer="433" from-port="0" to-layer="434" to-port="3"/>
		<edge from-layer="434" from-port="4" to-layer="435" to-port="0"/>
		<edge from-layer="435" from-port="1" to-layer="436" to-port="1"/>
		<edge from-layer="436" from-port="2" to-layer="438" to-port="0"/>
		<edge from-layer="437" from-port="0" to-layer="438" to-port="1"/>
		<edge from-layer="438" from-port="2" to-layer="440" to-port="0"/>
		<edge from-layer="439" from-port="0" to-layer="440" to-port="1"/>
		<edge from-layer="440" from-port="2" to-layer="442" to-port="0"/>
		<edge from-layer="441" from-port="0" to-layer="442" to-port="1"/>
		<edge from-layer="442" from-port="2" to-layer="443" to-port="0"/>
		<edge from-layer="443" from-port="1" to-layer="445" to-port="0"/>
		<edge from-layer="444" from-port="0" to-layer="445" to-port="1"/>
		<edge from-layer="445" from-port="2" to-layer="447" to-port="0"/>
		<edge from-layer="446" from-port="0" to-layer="447" to-port="1"/>
		<edge from-layer="447" from-port="2" to-layer="448" to-port="0"/>
		<edge from-layer="448" from-port="1" to-layer="449" to-port="1"/>
		<edge from-layer="449" from-port="2" to-layer="451" to-port="0"/>
		<edge from-layer="450" from-port="0" to-layer="451" to-port="1"/>
		<edge from-layer="451" from-port="2" to-layer="453" to-port="0"/>
		<edge from-layer="452" from-port="0" to-layer="453" to-port="1"/>
		<edge from-layer="453" from-port="2" to-layer="454" to-port="1"/>
		<edge from-layer="454" from-port="2" to-layer="456" to-port="0"/>
		<edge from-layer="455" from-port="0" to-layer="456" to-port="1"/>
		<edge from-layer="456" from-port="2" to-layer="458" to-port="0"/>
		<edge from-layer="457" from-port="0" to-layer="458" to-port="1"/>
		<edge from-layer="458" from-port="2" to-layer="460" to-port="1"/>
		<edge from-layer="458" from-port="2" to-layer="459" to-port="0"/>
		<edge from-layer="459" from-port="1" to-layer="460" to-port="0"/>
		<edge from-layer="460" from-port="2" to-layer="462" to-port="0"/>
		<edge from-layer="461" from-port="0" to-layer="462" to-port="1"/>
		<edge from-layer="462" from-port="2" to-layer="464" to-port="0"/>
		<edge from-layer="463" from-port="0" to-layer="464" to-port="1"/>
		<edge from-layer="464" from-port="2" to-layer="466" to-port="0"/>
		<edge from-layer="465" from-port="0" to-layer="466" to-port="1"/>
		<edge from-layer="466" from-port="2" to-layer="468" to-port="0"/>
		<edge from-layer="466" from-port="2" to-layer="550" to-port="0"/>
		<edge from-layer="467" from-port="0" to-layer="468" to-port="1"/>
		<edge from-layer="468" from-port="2" to-layer="470" to-port="0"/>
		<edge from-layer="469" from-port="0" to-layer="470" to-port="1"/>
		<edge from-layer="470" from-port="2" to-layer="472" to-port="0"/>
		<edge from-layer="471" from-port="0" to-layer="472" to-port="1"/>
		<edge from-layer="472" from-port="2" to-layer="489" to-port="0"/>
		<edge from-layer="472" from-port="2" to-layer="478" to-port="0"/>
		<edge from-layer="473" from-port="1" to-layer="476" to-port="0"/>
		<edge from-layer="474" from-port="0" to-layer="476" to-port="1"/>
		<edge from-layer="475" from-port="0" to-layer="476" to-port="2"/>
		<edge from-layer="476" from-port="3" to-layer="489" to-port="1"/>
		<edge from-layer="477" from-port="0" to-layer="487" to-port="0"/>
		<edge from-layer="478" from-port="1" to-layer="481" to-port="0"/>
		<edge from-layer="479" from-port="0" to-layer="481" to-port="1"/>
		<edge from-layer="480" from-port="0" to-layer="481" to-port="2"/>
		<edge from-layer="481" from-port="3" to-layer="485" to-port="0"/>
		<edge from-layer="482" from-port="0" to-layer="485" to-port="1"/>
		<edge from-layer="483" from-port="0" to-layer="485" to-port="2"/>
		<edge from-layer="484" from-port="0" to-layer="485" to-port="3"/>
		<edge from-layer="485" from-port="4" to-layer="486" to-port="0"/>
		<edge from-layer="486" from-port="1" to-layer="487" to-port="1"/>
		<edge from-layer="487" from-port="2" to-layer="489" to-port="2"/>
		<edge from-layer="488" from-port="0" to-layer="489" to-port="3"/>
		<edge from-layer="489" from-port="4" to-layer="490" to-port="0"/>
		<edge from-layer="490" from-port="2" to-layer="492" to-port="0"/>
		<edge from-layer="491" from-port="0" to-layer="492" to-port="1"/>
		<edge from-layer="492" from-port="2" to-layer="494" to-port="0"/>
		<edge from-layer="493" from-port="0" to-layer="494" to-port="1"/>
		<edge from-layer="494" from-port="2" to-layer="496" to-port="0"/>
		<edge from-layer="495" from-port="0" to-layer="496" to-port="1"/>
		<edge from-layer="496" from-port="2" to-layer="498" to-port="0"/>
		<edge from-layer="496" from-port="2" to-layer="539" to-port="0"/>
		<edge from-layer="497" from-port="0" to-layer="498" to-port="1"/>
		<edge from-layer="498" from-port="2" to-layer="500" to-port="0"/>
		<edge from-layer="499" from-port="0" to-layer="500" to-port="1"/>
		<edge from-layer="500" from-port="2" to-layer="502" to-port="0"/>
		<edge from-layer="501" from-port="0" to-layer="502" to-port="1"/>
		<edge from-layer="502" from-port="2" to-layer="508" to-port="0"/>
		<edge from-layer="502" from-port="2" to-layer="519" to-port="0"/>
		<edge from-layer="503" from-port="1" to-layer="506" to-port="0"/>
		<edge from-layer="504" from-port="0" to-layer="506" to-port="1"/>
		<edge from-layer="505" from-port="0" to-layer="506" to-port="2"/>
		<edge from-layer="506" from-port="3" to-layer="519" to-port="1"/>
		<edge from-layer="507" from-port="0" to-layer="517" to-port="0"/>
		<edge from-layer="508" from-port="1" to-layer="511" to-port="0"/>
		<edge from-layer="509" from-port="0" to-layer="511" to-port="1"/>
		<edge from-layer="510" from-port="0" to-layer="511" to-port="2"/>
		<edge from-layer="511" from-port="3" to-layer="515" to-port="0"/>
		<edge from-layer="512" from-port="0" to-layer="515" to-port="1"/>
		<edge from-layer="513" from-port="0" to-layer="515" to-port="2"/>
		<edge from-layer="514" from-port="0" to-layer="515" to-port="3"/>
		<edge from-layer="515" from-port="4" to-layer="516" to-port="0"/>
		<edge from-layer="516" from-port="1" to-layer="517" to-port="1"/>
		<edge from-layer="517" from-port="2" to-layer="519" to-port="2"/>
		<edge from-layer="518" from-port="0" to-layer="519" to-port="3"/>
		<edge from-layer="519" from-port="4" to-layer="520" to-port="0"/>
		<edge from-layer="520" from-port="2" to-layer="522" to-port="0"/>
		<edge from-layer="521" from-port="0" to-layer="522" to-port="1"/>
		<edge from-layer="522" from-port="2" to-layer="524" to-port="0"/>
		<edge from-layer="523" from-port="0" to-layer="524" to-port="1"/>
		<edge from-layer="524" from-port="2" to-layer="526" to-port="0"/>
		<edge from-layer="525" from-port="0" to-layer="526" to-port="1"/>
		<edge from-layer="526" from-port="2" to-layer="528" to-port="0"/>
		<edge from-layer="527" from-port="0" to-layer="528" to-port="1"/>
		<edge from-layer="528" from-port="2" to-layer="530" to-port="0"/>
		<edge from-layer="529" from-port="0" to-layer="530" to-port="1"/>
		<edge from-layer="530" from-port="2" to-layer="532" to-port="0"/>
		<edge from-layer="531" from-port="0" to-layer="532" to-port="1"/>
		<edge from-layer="532" from-port="2" to-layer="534" to-port="0"/>
		<edge from-layer="533" from-port="0" to-layer="534" to-port="1"/>
		<edge from-layer="534" from-port="2" to-layer="536" to-port="0"/>
		<edge from-layer="535" from-port="0" to-layer="536" to-port="1"/>
		<edge from-layer="536" from-port="2" to-layer="537" to-port="0"/>
		<edge from-layer="538" from-port="0" to-layer="539" to-port="1"/>
		<edge from-layer="539" from-port="2" to-layer="541" to-port="0"/>
		<edge from-layer="540" from-port="0" to-layer="541" to-port="1"/>
		<edge from-layer="541" from-port="2" to-layer="543" to-port="0"/>
		<edge from-layer="542" from-port="0" to-layer="543" to-port="1"/>
		<edge from-layer="543" from-port="2" to-layer="545" to-port="0"/>
		<edge from-layer="544" from-port="0" to-layer="545" to-port="1"/>
		<edge from-layer="545" from-port="2" to-layer="547" to-port="0"/>
		<edge from-layer="546" from-port="0" to-layer="547" to-port="1"/>
		<edge from-layer="547" from-port="2" to-layer="548" to-port="0"/>
		<edge from-layer="549" from-port="0" to-layer="550" to-port="1"/>
		<edge from-layer="550" from-port="2" to-layer="552" to-port="0"/>
		<edge from-layer="551" from-port="0" to-layer="552" to-port="1"/>
		<edge from-layer="552" from-port="2" to-layer="554" to-port="0"/>
		<edge from-layer="553" from-port="0" to-layer="554" to-port="1"/>
		<edge from-layer="554" from-port="2" to-layer="556" to-port="0"/>
		<edge from-layer="555" from-port="0" to-layer="556" to-port="1"/>
		<edge from-layer="556" from-port="2" to-layer="558" to-port="0"/>
		<edge from-layer="557" from-port="0" to-layer="558" to-port="1"/>
		<edge from-layer="558" from-port="2" to-layer="559" to-port="0"/>
	</edges>
	<meta_data>
		<MO_version value="2021.4.0-3839-cd81789d294-releases/2021/4"/>
		<cli_parameters>
			<caffe_parser_path value="DIR"/>
			<data_type value="float"/>
			<disable_nhwc_to_nchw value="False"/>
			<disable_omitting_optional value="False"/>
			<disable_resnet_optimization value="False"/>
			<disable_weights_compression value="False"/>
			<enable_concat_optimization value="False"/>
			<enable_flattening_nested_params value="False"/>
			<enable_ssd_gluoncv value="False"/>
			<extensions value="DIR"/>
			<framework value="tf"/>
			<freeze_placeholder_with_value value="{}"/>
			<generate_deprecated_IR_V7 value="False"/>
			<input_model value="DIR\model.pb"/>
			<input_model_is_text value="False"/>
			<input_shape value="[1,384,384,3]"/>
			<k value="DIR\CustomLayersMapping.xml"/>
			<keep_shape_ops value="True"/>
			<legacy_ir_generation value="False"/>
			<legacy_mxnet_model value="False"/>
			<log_level value="ERROR"/>
			<mean_scale_values value="{}"/>
			<mean_values value="()"/>
			<model_name value="model"/>
			<output_dir value="DIR"/>
			<placeholder_data_types value="{}"/>
			<placeholder_shapes value="[  1 384 384   3]"/>
			<progress value="False"/>
			<remove_memory value="False"/>
			<remove_output_softmax value="False"/>
			<reverse_input_channels value="False"/>
			<save_params_from_nd value="False"/>
			<scale_values value="()"/>
			<silent value="False"/>
			<static_shape value="False"/>
			<stream_output value="False"/>
			<transform value=""/>
			<unset unset_cli_parameters="batch, counts, disable_fusing, disable_gfusing, finegrain_fusing, input, input_checkpoint, input_meta_graph, input_proto, input_symbol, mean_file, mean_file_offsets, move_to_preprocess, nd_prefix_name, output, pretrained_model_name, saved_model_dir, saved_model_tags, scale, tensorboard_logdir, tensorflow_custom_layer_libraries, tensorflow_custom_operations_config_update, tensorflow_object_detection_api_pipeline_config, tensorflow_use_custom_operations_config, transformations_config"/>
		</cli_parameters>
	</meta_data>
</net>
